…
l_lip=False)
INFO     2024-08-08 18:14:20,595 Loading config file: config/mnist.crown-ibp.json
INFO     2024-08-08 18:14:20,595 config: {"data": "MNIST", "seed": 100, "training_params": {"method": "robust", "batch_size": 64, "num_epochs": 30, "scheduler_name": "SmoothedScheduler", "scheduler_opts": "start=2,length=5", "lr_decay_factor": 0.5, "lr_decay_milestones": ""}, "bound_params": {"eps": 0.0, "bound_opts": {"relu": "adaptive", "exp": "clamp_constant"}, "bound_type": "CROWN-IBP"}, "model": "resnet", "batch_size": 64}
INFO     2024-08-08 18:14:20,610 Model structure: 
 DenseSequential(
  (0): Conv2d(1, 16, kernel_size=(3, 3), stride=(1, 1), padding=(3, 3))
  (1): ReLU()
  (2): Dense(
    (Ws): ModuleList(
      (0): Conv2d(16, 16, kernel_size=(3, 3), stride=(1, 1), padding=(1, 1))
    )
  )
  (3): ReLU()
  (4): Dense(
    (Ws): ModuleList(
      (0): Conv2d(16, 16, kernel_size=(1, 1), stride=(1, 1))
      (1): None
      (2): Conv2d(16, 16, kernel_size=(3, 3), stride=(1, 1), padding=(1, 1))
    )
  )
  (5): ReLU()
  (6): Dense(
    (Ws): ModuleList(
      (0): Conv2d(16, 16, kernel_size=(3, 3), stride=(1, 1), padding=(1, 1))
    )
  )
  (7): ReLU()
  (8): Dense(
    (Ws): ModuleList(
      (0): Conv2d(16, 16, kernel_size=(1, 1), stride=(1, 1))
      (1): None
      (2): Conv2d(16, 16, kernel_size=(3, 3), stride=(1, 1), padding=(1, 1))
    )
  )
  (9): ReLU()
  (10): Dense(
    (Ws): ModuleList(
      (0): Conv2d(16, 32, kernel_size=(4, 4), stride=(2, 2), padding=(1, 1))
    )
  )
  (11): ReLU()
  (12): Dense(
    (Ws): ModuleList(
      (0): Conv2d(16, 32, kernel_size=(2, 2), stride=(2, 2))
      (1): None
      (2): Conv2d(32, 32, kernel_size=(3, 3), stride=(1, 1), padding=(1, 1))
    )
  )
  (13): ReLU()
  (14): Dense(
    (Ws): ModuleList(
      (0): Conv2d(32, 64, kernel_size=(4, 4), stride=(2, 2), padding=(1, 1))
    )
  )
  (15): ReLU()
  (16): Dense(
    (Ws): ModuleList(
      (0): Conv2d(32, 64, kernel_size=(2, 2), stride=(2, 2))
      (1): None
      (2): Conv2d(64, 64, kernel_size=(3, 3), stride=(1, 1), padding=(1, 1))
    )
  )
  (17): ReLU()
  (18): Flatten(start_dim=1, end_dim=-1)
  (19): Linear(in_features=4096, out_features=1000, bias=True)
  (20): ReLU()
  (21): Linear(in_features=1000, out_features=256, bias=True)
)
INFO     2024-08-08 18:14:42,295 Arguments: Namespace(debug=False, verify=False, load='', config='config/mnist.crown-ibp.json', device='cuda', log_interval=1000, seed=None, dir='mnist_pdq_ep1_aug2', model='resnet', loss_fusion=False, num_epochs=70, auto_load=False, method='fast', test_interval=1, plot=False, bound_type='IBP', natural=False, check_na
…
