{
  "transform_params" : {
    "image" : {
      "bias_a" : 0,
      "bias_g" : -1,
      "bias_r" : -1,
      "bias_b" : -1,
      "center_mean" : 0,
      "is_network_bgr" : 0,
      "scale" : 0.0078431377187371254
    }
  },
  "properties" : {
  },
  "storage" : "NeuralHashv3b_fp16-current.espresso.weights",
  "format_version" : 200,
  "layers" : [
    {
      "pad_r" : 0,
      "fused_relu" : 0,
      "fused_tanh" : 0,
      "pad_fill_mode" : 0,
      "pad_b" : 0,
      "pad_l" : 0,
      "top" : "stem\/MobilenetV3\/Conv2d_0\/Conv2D",
      "K" : 3,
      "stride_x" : 2,
      "name" : "stem\/MobilenetV3\/Conv2d_0\/Conv2D",
      "has_batch_norm" : 0,
      "type" : "convolution",
      "n_groups" : 1,
      "pad_t" : 0,
      "stride_y" : 2,
      "has_biases" : 0,
      "C" : 16,
      "bottom" : "image",
      "weights" : {

      },
      "Nx" : 3,
      "pad_mode" : 1,
      "pad_value" : 0,
      "Ny" : 3,
      "n_parallel" : 1,
      "blob_weights_f16" : 1
    },
    {
      "bottom" : "stem\/MobilenetV3\/Conv2d_0\/Conv2D",
      "training_instancenorm" : 1,
      "training_momentum" : 0.89999997615814209,
      "training" : 1,
      "blob_batchnorm_params" : 3,
      "weights" : {

      },
      "training_eps" : 9.9999999747524271e-07,
      "top" : "stem\/MobilenetV3\/Conv2d_0\/InstanceNorm\/instancenorm\/add_1",
      "C" : 16,
      "type" : "batchnorm",
      "name" : "stem\/MobilenetV3\/Conv2d_0\/InstanceNorm\/instancenorm\/add_1"
    },
    {
      "alpha" : 3,
      "bottom" : "stem\/MobilenetV3\/Conv2d_0\/InstanceNorm\/instancenorm\/add_1",
      "operation" : 2,
      "weights" : {

      },
      "fused_relu" : 0,
      "top" : "stem\/MobilenetV3\/Conv2d_0\/add",
      "type" : "elementwise",
      "name" : "stem\/MobilenetV3\/Conv2d_0\/add",
      "beta" : 0
    },
    {
      "alpha" : 0,
      "bottom" : "stem\/MobilenetV3\/Conv2d_0\/add",
      "operation" : 119,
      "weights" : {

      },
      "fused_relu" : 0,
      "top" : "stem\/MobilenetV3\/Conv2d_0\/Relu6",
      "type" : "elementwise",
      "name" : "stem\/MobilenetV3\/Conv2d_0\/Relu6",
      "beta" : 6
    },
    {
      "alpha" : 0.1666666716337204,
      "bottom" : "stem\/MobilenetV3\/Conv2d_0\/Relu6",
      "operation" : 3,
      "weights" : {

      },
      "fused_relu" : 0,
      "top" : "stem\/MobilenetV3\/Conv2d_0\/mul",
      "type" : "elementwise",
      "name" : "stem\/MobilenetV3\/Conv2d_0\/mul",
      "beta" : 0
    },
    {
      "alpha" : 1,
      "bottom" : "stem\/MobilenetV3\/Conv2d_0\/InstanceNorm\/instancenorm\/add_1,stem\/MobilenetV3\/Conv2d_0\/mul",
      "operation" : 1,
      "weights" : {

      },
      "fused_relu" : 0,
      "top" : "stem\/MobilenetV3\/Conv2d_0\/mul_1",
      "type" : "elementwise",
      "name" : "stem\/MobilenetV3\/Conv2d_0\/mul_1",
      "beta" : 0
    },
    {
      "pad_r" : 0,
      "fused_relu" : 0,
      "fused_tanh" : 0,
      "pad_fill_mode" : 0,
      "pad_b" : 0,
      "pad_l" : 0,
      "top" : "stem\/MobilenetV3\/Bottleneck_1\/expand\/Conv2D",
      "K" : 16,
      "name" : "stem\/MobilenetV3\/Bottleneck_1\/expand\/Conv2D",
      "has_batch_norm" : 0,
      "type" : "convolution",
      "n_groups" : 1,
      "pad_t" : 0,
      "has_biases" : 0,
      "C" : 16,
      "bottom" : "stem\/MobilenetV3\/Conv2d_0\/mul_1",
      "weights" : {

      },
      "pad_mode" : 1,
      "Nx" : 1,
      "pad_value" : 0,
      "Ny" : 1,
      "n_parallel" : 1,
      "blob_weights_f16" : 5
    },
    {
      "bottom" : "stem\/MobilenetV3\/Bottleneck_1\/expand\/Conv2D",
      "training_instancenorm" : 1,
      "training_momentum" : 0.89999997615814209,
      "training" : 1,
      "blob_batchnorm_params" : 7,
      "weights" : {

      },
      "training_eps" : 9.9999999747524271e-07,
      "top" : "stem\/MobilenetV3\/Bottleneck_1\/expand\/InstanceNorm\/instancenorm\/add_1",
      "C" : 16,
      "type" : "batchnorm",
      "name" : "stem\/MobilenetV3\/Bottleneck_1\/expand\/InstanceNorm\/instancenorm\/add_1"
    },
    {
      "bottom" : "stem\/MobilenetV3\/Bottleneck_1\/expand\/InstanceNorm\/instancenorm\/add_1",
      "weights" : {

      },
      "mode" : 0,
      "top" : "stem\/MobilenetV3\/Bottleneck_1\/expand\/Relu",
      "type" : "activation",
      "name" : "stem\/MobilenetV3\/Bottleneck_1\/expand\/Relu",
      "beta" : 0
    },
    {
      "pad_r" : 0,
      "fused_relu" : 0,
      "fused_tanh" : 0,
      "pad_fill_mode" : 0,
      "pad_b" : 0,
      "pad_l" : 0,
      "top" : "stem\/MobilenetV3\/Bottleneck_1\/depthwise\/depthwise",
      "K" : 16,
      "stride_x" : 2,
      "name" : "stem\/MobilenetV3\/Bottleneck_1\/depthwise\/depthwise",
      "has_batch_norm" : 0,
      "type" : "convolution",
      "n_groups" : 16,
      "pad_t" : 0,
      "stride_y" : 2,
      "has_biases" : 0,
      "C" : 16,
      "bottom" : "stem\/MobilenetV3\/Bottleneck_1\/expand\/Relu",
      "weights" : {

      },
      "Nx" : 3,
      "pad_mode" : 1,
      "pad_value" : 0,
      "Ny" : 3,
      "n_parallel" : 1,
      "blob_weights_f16" : 9
    },
    {
      "bottom" : "stem\/MobilenetV3\/Bottleneck_1\/depthwise\/depthwise",
      "training_instancenorm" : 1,
      "training_momentum" : 0.89999997615814209,
      "training" : 1,
      "blob_batchnorm_params" : 11,
      "weights" : {

      },
      "training_eps" : 9.9999999747524271e-07,
      "top" : "stem\/MobilenetV3\/Bottleneck_1\/depthwise\/InstanceNorm\/instancenorm\/add_1",
      "C" : 16,
      "type" : "batchnorm",
      "name" : "stem\/MobilenetV3\/Bottleneck_1\/depthwise\/InstanceNorm\/instancenorm\/add_1"
    },
    {
      "pad_r" : 0,
      "pad_fill_mode" : 0,
      "pad_b" : 0,
      "pad_l" : 0,
      "top" : "stem\/MobilenetV3\/Bottleneck_1\/gap\/Mean",
      "size_x" : 90,
      "is_global" : 1,
      "top_shape_style" : 0,
      "stride_x" : 1,
      "avg_or_max" : 0,
      "average_count_exclude_padding" : 1,
      "type" : "pool",
      "name" : "stem\/MobilenetV3\/Bottleneck_1\/gap\/Mean",
      "pad_t" : 0,
      "stride_y" : 1,
      "bottom" : "stem\/MobilenetV3\/Bottleneck_1\/depthwise\/InstanceNorm\/instancenorm\/add_1",
      "weights" : {

      },
      "pad_mode" : 0,
      "size_y" : 90,
      "pad_value" : 0
    },
    {
      "pad_r" : 0,
      "fused_relu" : 1,
      "fused_tanh" : 0,
      "pad_fill_mode" : 0,
      "pad_b" : 0,
      "pad_l" : 0,
      "top" : "stem\/MobilenetV3\/Bottleneck_1\/Bottleneck_1\/Conv\/Conv2D",
      "K" : 16,
      "blob_biases" : 13,
      "name" : "stem\/MobilenetV3\/Bottleneck_1\/Bottleneck_1\/Conv\/Conv2D",
      "has_batch_norm" : 0,
      "type" : "convolution",
      "n_groups" : 1,
      "pad_t" : 0,
      "has_biases" : 1,
      "C" : 4,
      "bottom" : "stem\/MobilenetV3\/Bottleneck_1\/gap\/Mean",
      "weights" : {

      },
      "pad_mode" : 2,
      "Nx" : 1,
      "pad_value" : 0,
      "Ny" : 1,
      "n_parallel" : 1,
      "blob_weights_f16" : 15
    },
    {
      "pad_r" : 0,
      "fused_relu" : 0,
      "fused_tanh" : 0,
      "pad_fill_mode" : 0,
      "pad_b" : 0,
      "pad_l" : 0,
      "top" : "stem\/MobilenetV3\/Bottleneck_1\/Bottleneck_1_1\/Conv_1\/Conv2D",
      "K" : 4,
      "blob_biases" : 17,
      "name" : "stem\/MobilenetV3\/Bottleneck_1\/Bottleneck_1_1\/Conv_1\/Conv2D",
      "has_batch_norm" : 0,
      "type" : "convolution",
      "n_groups" : 1,
      "pad_t" : 0,
      "has_biases" : 1,
      "C" : 16,
      "bottom" : "stem\/MobilenetV3\/Bottleneck_1\/Bottleneck_1\/Conv\/Conv2D",
      "weights" : {

      },
      "pad_mode" : 2,
      "Nx" : 1,
      "pad_value" : 0,
      "Ny" : 1,
      "n_parallel" : 1,
      "blob_weights_f16" : 19
    },
    {
      "alpha" : 3,
      "bottom" : "stem\/MobilenetV3\/Bottleneck_1\/Bottleneck_1_1\/Conv_1\/Conv2D",
      "operation" : 2,
      "weights" : {

      },
      "fused_relu" : 0,
      "top" : "stem\/MobilenetV3\/Bottleneck_1\/Bottleneck_1_1\/Conv_1\/add",
      "type" : "elementwise",
      "name" : "stem\/MobilenetV3\/Bottleneck_1\/Bottleneck_1_1\/Conv_1\/add",
      "beta" : 0
    },
    {
      "alpha" : 0,
      "bottom" : "stem\/MobilenetV3\/Bottleneck_1\/Bottleneck_1_1\/Conv_1\/add",
      "operation" : 119,
      "weights" : {

      },
      "fused_relu" : 0,
      "top" : "stem\/MobilenetV3\/Bottleneck_1\/Bottleneck_1_1\/Conv_1\/Relu6",
      "type" : "elementwise",
      "name" : "stem\/MobilenetV3\/Bottleneck_1\/Bottleneck_1_1\/Conv_1\/Relu6",
      "beta" : 6
    },
    {
      "alpha" : 0.1666666716337204,
      "bottom" : "stem\/MobilenetV3\/Bottleneck_1\/Bottleneck_1_1\/Conv_1\/Relu6",
      "operation" : 3,
      "weights" : {

      },
      "fused_relu" : 0,
      "top" : "stem\/MobilenetV3\/Bottleneck_1\/Bottleneck_1_1\/Conv_1\/mul",
      "type" : "elementwise",
      "name" : "stem\/MobilenetV3\/Bottleneck_1\/Bottleneck_1_1\/Conv_1\/mul",
      "beta" : 0
    },
    {
      "alpha" : 1,
      "bottom" : "stem\/MobilenetV3\/Bottleneck_1\/depthwise\/InstanceNorm\/instancenorm\/add_1,stem\/MobilenetV3\/Bottleneck_1\/Bottleneck_1_1\/Conv_1\/mul",
      "operation" : 1,
      "weights" : {

      },
      "fused_relu" : 0,
      "nd_mode" : true,
      "top" : "stem\/MobilenetV3\/Bottleneck_1\/mul",
      "type" : "elementwise",
      "name" : "stem\/MobilenetV3\/Bottleneck_1\/mul",
      "beta" : 0
    },
    {
      "bottom" : "stem\/MobilenetV3\/Bottleneck_1\/mul",
      "weights" : {

      },
      "mode" : 0,
      "top" : "stem\/MobilenetV3\/Bottleneck_1\/Relu",
      "type" : "activation",
      "name" : "stem\/MobilenetV3\/Bottleneck_1\/Relu",
      "beta" : 0
    },
    {
      "pad_r" : 0,
      "fused_relu" : 0,
      "fused_tanh" : 0,
      "pad_fill_mode" : 0,
      "pad_b" : 0,
      "pad_l" : 0,
      "top" : "stem\/MobilenetV3\/Bottleneck_1\/compress\/Conv2D",
      "K" : 16,
      "name" : "stem\/MobilenetV3\/Bottleneck_1\/compress\/Conv2D",
      "has_batch_norm" : 0,
      "type" : "convolution",
      "n_groups" : 1,
      "pad_t" : 0,
      "has_biases" : 0,
      "C" : 16,
      "bottom" : "stem\/MobilenetV3\/Bottleneck_1\/Relu",
      "weights" : {

      },
      "pad_mode" : 1,
      "Nx" : 1,
      "pad_value" : 0,
      "Ny" : 1,
      "n_parallel" : 1,
      "blob_weights_f16" : 21
    },
    {
      "bottom" : "stem\/MobilenetV3\/Bottleneck_1\/compress\/Conv2D",
      "training_instancenorm" : 1,
      "training_momentum" : 0.89999997615814209,
      "training" : 1,
      "blob_batchnorm_params" : 23,
      "weights" : {

      },
      "training_eps" : 9.9999999747524271e-07,
      "top" : "stem\/MobilenetV3\/Bottleneck_1\/compress\/InstanceNorm\/instancenorm\/add_1",
      "C" : 16,
      "type" : "batchnorm",
      "name" : "stem\/MobilenetV3\/Bottleneck_1\/compress\/InstanceNorm\/instancenorm\/add_1"
    },
    {
      "pad_r" : 0,
      "fused_relu" : 0,
      "fused_tanh" : 0,
      "pad_fill_mode" : 0,
      "pad_b" : 0,
      "pad_l" : 0,
      "top" : "stem\/MobilenetV3\/Bottleneck_2\/expand\/Conv2D",
      "K" : 16,
      "name" : "stem\/MobilenetV3\/Bottleneck_2\/expand\/Conv2D",
      "has_batch_norm" : 0,
      "type" : "convolution",
      "n_groups" : 1,
      "pad_t" : 0,
      "has_biases" : 0,
      "C" : 56,
      "bottom" : "stem\/MobilenetV3\/Bottleneck_1\/compress\/InstanceNorm\/instancenorm\/add_1",
      "weights" : {

      },
      "pad_mode" : 1,
      "Nx" : 1,
      "pad_value" : 0,
      "Ny" : 1,
      "n_parallel" : 1,
      "blob_weights_f16" : 25
    },
    {
      "bottom" : "stem\/MobilenetV3\/Bottleneck_2\/expand\/Conv2D",
      "training_instancenorm" : 1,
      "training_momentum" : 0.89999997615814209,
      "training" : 1,
      "blob_batchnorm_params" : 27,
      "weights" : {

      },
      "training_eps" : 9.9999999747524271e-07,
      "top" : "stem\/MobilenetV3\/Bottleneck_2\/expand\/InstanceNorm\/instancenorm\/add_1",
      "C" : 56,
      "type" : "batchnorm",
      "name" : "stem\/MobilenetV3\/Bottleneck_2\/expand\/InstanceNorm\/instancenorm\/add_1"
    },
    {
      "bottom" : "stem\/MobilenetV3\/Bottleneck_2\/expand\/InstanceNorm\/instancenorm\/add_1",
      "weights" : {

      },
      "mode" : 0,
      "top" : "stem\/MobilenetV3\/Bottleneck_2\/expand\/Relu",
      "type" : "activation",
      "name" : "stem\/MobilenetV3\/Bottleneck_2\/expand\/Relu",
      "beta" : 0
    },
    {
      "pad_r" : 0,
      "fused_relu" : 0,
      "fused_tanh" : 0,
      "pad_fill_mode" : 0,
      "pad_b" : 0,
      "pad_l" : 0,
      "top" : "stem\/MobilenetV3\/Bottleneck_2\/depthwise\/depthwise",
      "K" : 56,
      "stride_x" : 2,
      "name" : "stem\/MobilenetV3\/Bottleneck_2\/depthwise\/depthwise",
      "has_batch_norm" : 0,
      "type" : "convolution",
      "n_groups" : 56,
      "pad_t" : 0,
      "stride_y" : 2,
      "has_biases" : 0,
      "C" : 56,
      "bottom" : "stem\/MobilenetV3\/Bottleneck_2\/expand\/Relu",
      "weights" : {

      },
      "Nx" : 3,
      "pad_mode" : 1,
      "pad_value" : 0,
      "Ny" : 3,
      "n_parallel" : 1,
      "blob_weights_f16" : 29
    },
    {
      "bottom" : "stem\/MobilenetV3\/Bottleneck_2\/depthwise\/depthwise",
      "training_instancenorm" : 1,
      "training_momentum" : 0.89999997615814209,
      "training" : 1,
      "blob_batchnorm_params" : 31,
      "weights" : {

      },
      "training_eps" : 9.9999999747524271e-07,
      "top" : "stem\/MobilenetV3\/Bottleneck_2\/depthwise\/InstanceNorm\/instancenorm\/add_1",
      "C" : 56,
      "type" : "batchnorm",
      "name" : "stem\/MobilenetV3\/Bottleneck_2\/depthwise\/InstanceNorm\/instancenorm\/add_1"
    },
    {
      "bottom" : "stem\/MobilenetV3\/Bottleneck_2\/depthwise\/InstanceNorm\/instancenorm\/add_1",
      "weights" : {

      },
      "mode" : 0,
      "top" : "stem\/MobilenetV3\/Bottleneck_2\/Relu",
      "type" : "activation",
      "name" : "stem\/MobilenetV3\/Bottleneck_2\/Relu",
      "beta" : 0
    },
    {
      "pad_r" : 0,
      "fused_relu" : 0,
      "fused_tanh" : 0,
      "pad_fill_mode" : 0,
      "pad_b" : 0,
      "pad_l" : 0,
      "top" : "stem\/MobilenetV3\/Bottleneck_2\/compress\/Conv2D",
      "K" : 56,
      "name" : "stem\/MobilenetV3\/Bottleneck_2\/compress\/Conv2D",
      "has_batch_norm" : 0,
      "type" : "convolution",
      "n_groups" : 1,
      "pad_t" : 0,
      "has_biases" : 0,
      "C" : 24,
      "bottom" : "stem\/MobilenetV3\/Bottleneck_2\/Relu",
      "weights" : {

      },
      "pad_mode" : 1,
      "Nx" : 1,
      "pad_value" : 0,
      "Ny" : 1,
      "n_parallel" : 1,
      "blob_weights_f16" : 33
    },
    {
      "bottom" : "stem\/MobilenetV3\/Bottleneck_2\/compress\/Conv2D",
      "training_instancenorm" : 1,
      "training_momentum" : 0.89999997615814209,
      "training" : 1,
      "blob_batchnorm_params" : 35,
      "weights" : {

      },
      "training_eps" : 9.9999999747524271e-07,
      "top" : "stem\/MobilenetV3\/Bottleneck_2\/compress\/InstanceNorm\/instancenorm\/add_1",
      "C" : 24,
      "type" : "batchnorm",
      "name" : "stem\/MobilenetV3\/Bottleneck_2\/compress\/InstanceNorm\/instancenorm\/add_1"
    },
    {
      "pad_r" : 0,
      "fused_relu" : 0,
      "fused_tanh" : 0,
      "pad_fill_mode" : 0,
      "pad_b" : 0,
      "pad_l" : 0,
      "top" : "stem\/MobilenetV3\/Bottleneck_3\/expand\/Conv2D",
      "K" : 24,
      "name" : "stem\/MobilenetV3\/Bottleneck_3\/expand\/Conv2D",
      "has_batch_norm" : 0,
      "type" : "convolution",
      "n_groups" : 1,
      "pad_t" : 0,
      "has_biases" : 0,
      "C" : 64,
      "bottom" : "stem\/MobilenetV3\/Bottleneck_2\/compress\/InstanceNorm\/instancenorm\/add_1",
      "weights" : {

      },
      "pad_mode" : 1,
      "Nx" : 1,
      "pad_value" : 0,
      "Ny" : 1,
      "n_parallel" : 1,
      "blob_weights_f16" : 37
    },
    {
      "bottom" : "stem\/MobilenetV3\/Bottleneck_3\/expand\/Conv2D",
      "training_instancenorm" : 1,
      "training_momentum" : 0.89999997615814209,
      "training" : 1,
      "blob_batchnorm_params" : 39,
      "weights" : {

      },
      "training_eps" : 9.9999999747524271e-07,
      "top" : "stem\/MobilenetV3\/Bottleneck_3\/expand\/InstanceNorm\/instancenorm\/add_1",
      "C" : 64,
      "type" : "batchnorm",
      "name" : "stem\/MobilenetV3\/Bottleneck_3\/expand\/InstanceNorm\/instancenorm\/add_1"
    },
    {
      "bottom" : "stem\/MobilenetV3\/Bottleneck_3\/expand\/InstanceNorm\/instancenorm\/add_1",
      "weights" : {

      },
      "mode" : 0,
      "top" : "stem\/MobilenetV3\/Bottleneck_3\/expand\/Relu",
      "type" : "activation",
      "name" : "stem\/MobilenetV3\/Bottleneck_3\/expand\/Relu",
      "beta" : 0
    },
    {
      "pad_r" : 0,
      "fused_relu" : 0,
      "fused_tanh" : 0,
      "pad_fill_mode" : 0,
      "pad_b" : 0,
      "pad_l" : 0,
      "top" : "stem\/MobilenetV3\/Bottleneck_3\/depthwise\/depthwise",
      "K" : 64,
      "name" : "stem\/MobilenetV3\/Bottleneck_3\/depthwise\/depthwise",
      "has_batch_norm" : 0,
      "type" : "convolution",
      "n_groups" : 64,
      "pad_t" : 0,
      "has_biases" : 0,
      "C" : 64,
      "bottom" : "stem\/MobilenetV3\/Bottleneck_3\/expand\/Relu",
      "weights" : {

      },
      "pad_mode" : 1,
      "Nx" : 3,
      "pad_value" : 0,
      "Ny" : 3,
      "n_parallel" : 1,
      "blob_weights_f16" : 41
    },
    {
      "bottom" : "stem\/MobilenetV3\/Bottleneck_3\/depthwise\/depthwise",
      "training_instancenorm" : 1,
      "training_momentum" : 0.89999997615814209,
      "training" : 1,
      "blob_batchnorm_params" : 43,
      "weights" : {

      },
      "training_eps" : 9.9999999747524271e-07,
      "top" : "stem\/MobilenetV3\/Bottleneck_3\/depthwise\/InstanceNorm\/instancenorm\/add_1",
      "C" : 64,
      "type" : "batchnorm",
      "name" : "stem\/MobilenetV3\/Bottleneck_3\/depthwise\/InstanceNorm\/instancenorm\/add_1"
    },
    {
      "bottom" : "stem\/MobilenetV3\/Bottleneck_3\/depthwise\/InstanceNorm\/instancenorm\/add_1",
      "weights" : {

      },
      "mode" : 0,
      "top" : "stem\/MobilenetV3\/Bottleneck_3\/Relu",
      "type" : "activation",
      "name" : "stem\/MobilenetV3\/Bottleneck_3\/Relu",
      "beta" : 0
    },
    {
      "pad_r" : 0,
      "fused_relu" : 0,
      "fused_tanh" : 0,
      "pad_fill_mode" : 0,
      "pad_b" : 0,
      "pad_l" : 0,
      "top" : "stem\/MobilenetV3\/Bottleneck_3\/compress\/Conv2D",
      "K" : 64,
      "name" : "stem\/MobilenetV3\/Bottleneck_3\/compress\/Conv2D",
      "has_batch_norm" : 0,
      "type" : "convolution",
      "n_groups" : 1,
      "pad_t" : 0,
      "has_biases" : 0,
      "C" : 24,
      "bottom" : "stem\/MobilenetV3\/Bottleneck_3\/Relu",
      "weights" : {

      },
      "pad_mode" : 1,
      "Nx" : 1,
      "pad_value" : 0,
      "Ny" : 1,
      "n_parallel" : 1,
      "blob_weights_f16" : 45
    },
    {
      "bottom" : "stem\/MobilenetV3\/Bottleneck_3\/compress\/Conv2D",
      "training_instancenorm" : 1,
      "training_momentum" : 0.89999997615814209,
      "training" : 1,
      "blob_batchnorm_params" : 47,
      "weights" : {

      },
      "training_eps" : 9.9999999747524271e-07,
      "top" : "stem\/MobilenetV3\/Bottleneck_3\/compress\/InstanceNorm\/instancenorm\/add_1",
      "C" : 24,
      "type" : "batchnorm",
      "name" : "stem\/MobilenetV3\/Bottleneck_3\/compress\/InstanceNorm\/instancenorm\/add_1"
    },
    {
      "alpha" : 1,
      "bottom" : "stem\/MobilenetV3\/Bottleneck_3\/compress\/InstanceNorm\/instancenorm\/add_1,stem\/MobilenetV3\/Bottleneck_2\/compress\/InstanceNorm\/instancenorm\/add_1",
      "operation" : 0,
      "weights" : {

      },
      "fused_relu" : 0,
      "top" : "stem\/MobilenetV3\/Bottleneck_3\/add",
      "type" : "elementwise",
      "name" : "stem\/MobilenetV3\/Bottleneck_3\/add",
      "beta" : 0
    },
    {
      "pad_r" : 0,
      "fused_relu" : 0,
      "fused_tanh" : 0,
      "pad_fill_mode" : 0,
      "pad_b" : 0,
      "pad_l" : 0,
      "top" : "stem\/MobilenetV3\/Bottleneck_4\/expand\/Conv2D",
      "K" : 24,
      "name" : "stem\/MobilenetV3\/Bottleneck_4\/expand\/Conv2D",
      "has_batch_norm" : 0,
      "type" : "convolution",
      "n_groups" : 1,
      "pad_t" : 0,
      "has_biases" : 0,
      "C" : 72,
      "bottom" : "stem\/MobilenetV3\/Bottleneck_3\/add",
      "weights" : {

      },
      "pad_mode" : 1,
      "Nx" : 1,
      "pad_value" : 0,
      "Ny" : 1,
      "n_parallel" : 1,
      "blob_weights_f16" : 49
    },
    {
      "bottom" : "stem\/MobilenetV3\/Bottleneck_4\/expand\/Conv2D",
      "training_instancenorm" : 1,
      "training_momentum" : 0.89999997615814209,
      "training" : 1,
      "blob_batchnorm_params" : 51,
      "weights" : {

      },
      "training_eps" : 9.9999999747524271e-07,
      "top" : "stem\/MobilenetV3\/Bottleneck_4\/expand\/InstanceNorm\/instancenorm\/add_1",
      "C" : 72,
      "type" : "batchnorm",
      "name" : "stem\/MobilenetV3\/Bottleneck_4\/expand\/InstanceNorm\/instancenorm\/add_1"
    },
    {
      "alpha" : 3,
      "bottom" : "stem\/MobilenetV3\/Bottleneck_4\/expand\/InstanceNorm\/instancenorm\/add_1",
      "operation" : 2,
      "weights" : {

      },
      "fused_relu" : 0,
      "top" : "stem\/MobilenetV3\/Bottleneck_4\/expand\/add",
      "type" : "elementwise",
      "name" : "stem\/MobilenetV3\/Bottleneck_4\/expand\/add",
      "beta" : 0
    },
    {
      "alpha" : 0,
      "bottom" : "stem\/MobilenetV3\/Bottleneck_4\/expand\/add",
      "operation" : 119,
      "weights" : {

      },
      "fused_relu" : 0,
      "top" : "stem\/MobilenetV3\/Bottleneck_4\/expand\/Relu6",
      "type" : "elementwise",
      "name" : "stem\/MobilenetV3\/Bottleneck_4\/expand\/Relu6",
      "beta" : 6
    },
    {
      "alpha" : 0.1666666716337204,
      "bottom" : "stem\/MobilenetV3\/Bottleneck_4\/expand\/Relu6",
      "operation" : 3,
      "weights" : {

      },
      "fused_relu" : 0,
      "top" : "stem\/MobilenetV3\/Bottleneck_4\/expand\/mul",
      "type" : "elementwise",
      "name" : "stem\/MobilenetV3\/Bottleneck_4\/expand\/mul",
      "beta" : 0
    },
    {
      "alpha" : 1,
      "bottom" : "stem\/MobilenetV3\/Bottleneck_4\/expand\/InstanceNorm\/instancenorm\/add_1,stem\/MobilenetV3\/Bottleneck_4\/expand\/mul",
      "operation" : 1,
      "weights" : {

      },
      "fused_relu" : 0,
      "top" : "stem\/MobilenetV3\/Bottleneck_4\/expand\/mul_1",
      "type" : "elementwise",
      "name" : "stem\/MobilenetV3\/Bottleneck_4\/expand\/mul_1",
      "beta" : 0
    },
    {
      "pad_r" : 0,
      "fused_relu" : 0,
      "fused_tanh" : 0,
      "pad_fill_mode" : 0,
      "pad_b" : 0,
      "pad_l" : 0,
      "top" : "stem\/MobilenetV3\/Bottleneck_4\/depthwise\/depthwise",
      "K" : 72,
      "stride_x" : 2,
      "name" : "stem\/MobilenetV3\/Bottleneck_4\/depthwise\/depthwise",
      "has_batch_norm" : 0,
      "type" : "convolution",
      "n_groups" : 72,
      "pad_t" : 0,
      "stride_y" : 2,
      "has_biases" : 0,
      "C" : 72,
      "bottom" : "stem\/MobilenetV3\/Bottleneck_4\/expand\/mul_1",
      "weights" : {

      },
      "Nx" : 5,
      "pad_mode" : 1,
      "pad_value" : 0,
      "Ny" : 5,
      "n_parallel" : 1,
      "blob_weights_f16" : 53
    },
    {
      "bottom" : "stem\/MobilenetV3\/Bottleneck_4\/depthwise\/depthwise",
      "training_instancenorm" : 1,
      "training_momentum" : 0.89999997615814209,
      "training" : 1,
      "blob_batchnorm_params" : 55,
      "weights" : {

      },
      "training_eps" : 9.9999999747524271e-07,
      "top" : "stem\/MobilenetV3\/Bottleneck_4\/depthwise\/InstanceNorm\/instancenorm\/add_1",
      "C" : 72,
      "type" : "batchnorm",
      "name" : "stem\/MobilenetV3\/Bottleneck_4\/depthwise\/InstanceNorm\/instancenorm\/add_1"
    },
    {
      "pad_r" : 0,
      "pad_fill_mode" : 0,
      "pad_b" : 0,
      "pad_l" : 0,
      "top" : "stem\/MobilenetV3\/Bottleneck_4\/gap\/Mean",
      "size_x" : 23,
      "is_global" : 1,
      "top_shape_style" : 0,
      "stride_x" : 1,
      "avg_or_max" : 0,
      "average_count_exclude_padding" : 1,
      "type" : "pool",
      "name" : "stem\/MobilenetV3\/Bottleneck_4\/gap\/Mean",
      "pad_t" : 0,
      "stride_y" : 1,
      "bottom" : "stem\/MobilenetV3\/Bottleneck_4\/depthwise\/InstanceNorm\/instancenorm\/add_1",
      "weights" : {

      },
      "pad_mode" : 0,
      "size_y" : 23,
      "pad_value" : 0
    },
    {
      "pad_r" : 0,
      "fused_relu" : 1,
      "fused_tanh" : 0,
      "pad_fill_mode" : 0,
      "pad_b" : 0,
      "pad_l" : 0,
      "top" : "stem\/MobilenetV3\/Bottleneck_4\/Bottleneck_4\/Conv\/Conv2D",
      "K" : 72,
      "blob_biases" : 57,
      "name" : "stem\/MobilenetV3\/Bottleneck_4\/Bottleneck_4\/Conv\/Conv2D",
      "has_batch_norm" : 0,
      "type" : "convolution",
      "n_groups" : 1,
      "pad_t" : 0,
      "has_biases" : 1,
      "C" : 18,
      "bottom" : "stem\/MobilenetV3\/Bottleneck_4\/gap\/Mean",
      "weights" : {

      },
      "pad_mode" : 2,
      "Nx" : 1,
      "pad_value" : 0,
      "Ny" : 1,
      "n_parallel" : 1,
      "blob_weights_f16" : 59
    },
    {
      "pad_r" : 0,
      "fused_relu" : 0,
      "fused_tanh" : 0,
      "pad_fill_mode" : 0,
      "pad_b" : 0,
      "pad_l" : 0,
      "top" : "stem\/MobilenetV3\/Bottleneck_4\/Bottleneck_4_1\/Conv_1\/Conv2D",
      "K" : 18,
      "blob_biases" : 61,
      "name" : "stem\/MobilenetV3\/Bottleneck_4\/Bottleneck_4_1\/Conv_1\/Conv2D",
      "has_batch_norm" : 0,
      "type" : "convolution",
      "n_groups" : 1,
      "pad_t" : 0,
      "has_biases" : 1,
      "C" : 72,
      "bottom" : "stem\/MobilenetV3\/Bottleneck_4\/Bottleneck_4\/Conv\/Conv2D",
      "weights" : {

      },
      "pad_mode" : 2,
      "Nx" : 1,
      "pad_value" : 0,
      "Ny" : 1,
      "n_parallel" : 1,
      "blob_weights_f16" : 63
    },
    {
      "alpha" : 3,
      "bottom" : "stem\/MobilenetV3\/Bottleneck_4\/Bottleneck_4_1\/Conv_1\/Conv2D",
      "operation" : 2,
      "weights" : {

      },
      "fused_relu" : 0,
      "top" : "stem\/MobilenetV3\/Bottleneck_4\/Bottleneck_4_1\/Conv_1\/add",
      "type" : "elementwise",
      "name" : "stem\/MobilenetV3\/Bottleneck_4\/Bottleneck_4_1\/Conv_1\/add",
      "beta" : 0
    },
    {
      "alpha" : 0,
      "bottom" : "stem\/MobilenetV3\/Bottleneck_4\/Bottleneck_4_1\/Conv_1\/add",
      "operation" : 119,
      "weights" : {

      },
      "fused_relu" : 0,
      "top" : "stem\/MobilenetV3\/Bottleneck_4\/Bottleneck_4_1\/Conv_1\/Relu6",
      "type" : "elementwise",
      "name" : "stem\/MobilenetV3\/Bottleneck_4\/Bottleneck_4_1\/Conv_1\/Relu6",
      "beta" : 6
    },
    {
      "alpha" : 0.1666666716337204,
      "bottom" : "stem\/MobilenetV3\/Bottleneck_4\/Bottleneck_4_1\/Conv_1\/Relu6",
      "operation" : 3,
      "weights" : {

      },
      "fused_relu" : 0,
      "top" : "stem\/MobilenetV3\/Bottleneck_4\/Bottleneck_4_1\/Conv_1\/mul",
      "type" : "elementwise",
      "name" : "stem\/MobilenetV3\/Bottleneck_4\/Bottleneck_4_1\/Conv_1\/mul",
      "beta" : 0
    },
    {
      "alpha" : 1,
      "bottom" : "stem\/MobilenetV3\/Bottleneck_4\/depthwise\/InstanceNorm\/instancenorm\/add_1,stem\/MobilenetV3\/Bottleneck_4\/Bottleneck_4_1\/Conv_1\/mul",
      "operation" : 1,
      "weights" : {

      },
      "fused_relu" : 0,
      "nd_mode" : true,
      "top" : "stem\/MobilenetV3\/Bottleneck_4\/mul",
      "type" : "elementwise",
      "name" : "stem\/MobilenetV3\/Bottleneck_4\/mul",
      "beta" : 0
    },
    {
      "alpha" : 3,
      "bottom" : "stem\/MobilenetV3\/Bottleneck_4\/mul",
      "operation" : 2,
      "weights" : {

      },
      "fused_relu" : 0,
      "top" : "stem\/MobilenetV3\/Bottleneck_4\/add",
      "type" : "elementwise",
      "name" : "stem\/MobilenetV3\/Bottleneck_4\/add",
      "beta" : 0
    },
    {
      "alpha" : 0,
      "bottom" : "stem\/MobilenetV3\/Bottleneck_4\/add",
      "operation" : 119,
      "weights" : {

      },
      "fused_relu" : 0,
      "top" : "stem\/MobilenetV3\/Bottleneck_4\/Relu6",
      "type" : "elementwise",
      "name" : "stem\/MobilenetV3\/Bottleneck_4\/Relu6",
      "beta" : 6
    },
    {
      "alpha" : 0.1666666716337204,
      "bottom" : "stem\/MobilenetV3\/Bottleneck_4\/Relu6",
      "operation" : 3,
      "weights" : {

      },
      "fused_relu" : 0,
      "top" : "stem\/MobilenetV3\/Bottleneck_4\/mul_1",
      "type" : "elementwise",
      "name" : "stem\/MobilenetV3\/Bottleneck_4\/mul_1",
      "beta" : 0
    },
    {
      "alpha" : 1,
      "bottom" : "stem\/MobilenetV3\/Bottleneck_4\/mul,stem\/MobilenetV3\/Bottleneck_4\/mul_1",
      "operation" : 1,
      "weights" : {

      },
      "fused_relu" : 0,
      "top" : "stem\/MobilenetV3\/Bottleneck_4\/mul_2",
      "type" : "elementwise",
      "name" : "stem\/MobilenetV3\/Bottleneck_4\/mul_2",
      "beta" : 0
    },
    {
      "pad_r" : 0,
      "fused_relu" : 0,
      "fused_tanh" : 0,
      "pad_fill_mode" : 0,
      "pad_b" : 0,
      "pad_l" : 0,
      "top" : "stem\/MobilenetV3\/Bottleneck_4\/compress\/Conv2D",
      "K" : 72,
      "name" : "stem\/MobilenetV3\/Bottleneck_4\/compress\/Conv2D",
      "has_batch_norm" : 0,
      "type" : "convolution",
      "n_groups" : 1,
      "pad_t" : 0,
      "has_biases" : 0,
      "C" : 32,
      "bottom" : "stem\/MobilenetV3\/Bottleneck_4\/mul_2",
      "weights" : {

      },
      "pad_mode" : 1,
      "Nx" : 1,
      "pad_value" : 0,
      "Ny" : 1,
      "n_parallel" : 1,
      "blob_weights_f16" : 65
    },
    {
      "bottom" : "stem\/MobilenetV3\/Bottleneck_4\/compress\/Conv2D",
      "training_instancenorm" : 1,
      "training_momentum" : 0.89999997615814209,
      "training" : 1,
      "blob_batchnorm_params" : 67,
      "weights" : {

      },
      "training_eps" : 9.9999999747524271e-07,
      "top" : "stem\/MobilenetV3\/Bottleneck_4\/compress\/InstanceNorm\/instancenorm\/add_1",
      "C" : 32,
      "type" : "batchnorm",
      "name" : "stem\/MobilenetV3\/Bottleneck_4\/compress\/InstanceNorm\/instancenorm\/add_1"
    },
    {
      "pad_r" : 0,
      "fused_relu" : 0,
      "fused_tanh" : 0,
      "pad_fill_mode" : 0,
      "pad_b" : 0,
      "pad_l" : 0,
      "top" : "stem\/MobilenetV3\/Bottleneck_5\/expand\/Conv2D",
      "K" : 32,
      "name" : "stem\/MobilenetV3\/Bottleneck_5\/expand\/Conv2D",
      "has_batch_norm" : 0,
      "type" : "convolution",
      "n_groups" : 1,
      "pad_t" : 0,
      "has_biases" : 0,
      "C" : 184,
      "bottom" : "stem\/MobilenetV3\/Bottleneck_4\/compress\/InstanceNorm\/instancenorm\/add_1",
      "weights" : {

      },
      "pad_mode" : 1,
      "Nx" : 1,
      "pad_value" : 0,
      "Ny" : 1,
      "n_parallel" : 1,
      "blob_weights_f16" : 69
    },
    {
      "bottom" : "stem\/MobilenetV3\/Bottleneck_5\/expand\/Conv2D",
      "training_instancenorm" : 1,
      "training_momentum" : 0.89999997615814209,
      "training" : 1,
      "blob_batchnorm_params" : 71,
      "weights" : {

      },
      "training_eps" : 9.9999999747524271e-07,
      "top" : "stem\/MobilenetV3\/Bottleneck_5\/expand\/InstanceNorm\/instancenorm\/add_1",
      "C" : 184,
      "type" : "batchnorm",
      "name" : "stem\/MobilenetV3\/Bottleneck_5\/expand\/InstanceNorm\/instancenorm\/add_1"
    },
    {
      "alpha" : 3,
      "bottom" : "stem\/MobilenetV3\/Bottleneck_5\/expand\/InstanceNorm\/instancenorm\/add_1",
      "operation" : 2,
      "weights" : {

      },
      "fused_relu" : 0,
      "top" : "stem\/MobilenetV3\/Bottleneck_5\/expand\/add",
      "type" : "elementwise",
      "name" : "stem\/MobilenetV3\/Bottleneck_5\/expand\/add",
      "beta" : 0
    },
    {
      "alpha" : 0,
      "bottom" : "stem\/MobilenetV3\/Bottleneck_5\/expand\/add",
      "operation" : 119,
      "weights" : {

      },
      "fused_relu" : 0,
      "top" : "stem\/MobilenetV3\/Bottleneck_5\/expand\/Relu6",
      "type" : "elementwise",
      "name" : "stem\/MobilenetV3\/Bottleneck_5\/expand\/Relu6",
      "beta" : 6
    },
    {
      "alpha" : 0.1666666716337204,
      "bottom" : "stem\/MobilenetV3\/Bottleneck_5\/expand\/Relu6",
      "operation" : 3,
      "weights" : {

      },
      "fused_relu" : 0,
      "top" : "stem\/MobilenetV3\/Bottleneck_5\/expand\/mul",
      "type" : "elementwise",
      "name" : "stem\/MobilenetV3\/Bottleneck_5\/expand\/mul",
      "beta" : 0
    },
    {
      "alpha" : 1,
      "bottom" : "stem\/MobilenetV3\/Bottleneck_5\/expand\/InstanceNorm\/instancenorm\/add_1,stem\/MobilenetV3\/Bottleneck_5\/expand\/mul",
      "operation" : 1,
      "weights" : {

      },
      "fused_relu" : 0,
      "top" : "stem\/MobilenetV3\/Bottleneck_5\/expand\/mul_1",
      "type" : "elementwise",
      "name" : "stem\/MobilenetV3\/Bottleneck_5\/expand\/mul_1",
      "beta" : 0
    },
    {
      "pad_r" : 0,
      "fused_relu" : 0,
      "fused_tanh" : 0,
      "pad_fill_mode" : 0,
      "pad_b" : 0,
      "pad_l" : 0,
      "top" : "stem\/MobilenetV3\/Bottleneck_5\/depthwise\/depthwise",
      "K" : 184,
      "name" : "stem\/MobilenetV3\/Bottleneck_5\/depthwise\/depthwise",
      "has_batch_norm" : 0,
      "type" : "convolution",
      "n_groups" : 184,
      "pad_t" : 0,
      "has_biases" : 0,
      "C" : 184,
      "bottom" : "stem\/MobilenetV3\/Bottleneck_5\/expand\/mul_1",
      "weights" : {

      },
      "pad_mode" : 1,
      "Nx" : 5,
      "pad_value" : 0,
      "Ny" : 5,
      "n_parallel" : 1,
      "blob_weights_f16" : 73
    },
    {
      "bottom" : "stem\/MobilenetV3\/Bottleneck_5\/depthwise\/depthwise",
      "training_instancenorm" : 1,
      "training_momentum" : 0.89999997615814209,
      "training" : 1,
      "blob_batchnorm_params" : 75,
      "weights" : {

      },
      "training_eps" : 9.9999999747524271e-07,
      "top" : "stem\/MobilenetV3\/Bottleneck_5\/depthwise\/InstanceNorm\/instancenorm\/add_1",
      "C" : 184,
      "type" : "batchnorm",
      "name" : "stem\/MobilenetV3\/Bottleneck_5\/depthwise\/InstanceNorm\/instancenorm\/add_1"
    },
    {
      "pad_r" : 0,
      "pad_fill_mode" : 0,
      "pad_b" : 0,
      "pad_l" : 0,
      "top" : "stem\/MobilenetV3\/Bottleneck_5\/gap\/Mean",
      "size_x" : 23,
      "is_global" : 1,
      "top_shape_style" : 0,
      "stride_x" : 1,
      "avg_or_max" : 0,
      "average_count_exclude_padding" : 1,
      "type" : "pool",
      "name" : "stem\/MobilenetV3\/Bottleneck_5\/gap\/Mean",
      "pad_t" : 0,
      "stride_y" : 1,
      "bottom" : "stem\/MobilenetV3\/Bottleneck_5\/depthwise\/InstanceNorm\/instancenorm\/add_1",
      "weights" : {

      },
      "pad_mode" : 0,
      "size_y" : 23,
      "pad_value" : 0
    },
    {
      "pad_r" : 0,
      "fused_relu" : 1,
      "fused_tanh" : 0,
      "pad_fill_mode" : 0,
      "pad_b" : 0,
      "pad_l" : 0,
      "top" : "stem\/MobilenetV3\/Bottleneck_5\/Bottleneck_5\/Conv\/Conv2D",
      "K" : 184,
      "blob_biases" : 77,
      "name" : "stem\/MobilenetV3\/Bottleneck_5\/Bottleneck_5\/Conv\/Conv2D",
      "has_batch_norm" : 0,
      "type" : "convolution",
      "n_groups" : 1,
      "pad_t" : 0,
      "has_biases" : 1,
      "C" : 46,
      "bottom" : "stem\/MobilenetV3\/Bottleneck_5\/gap\/Mean",
      "weights" : {

      },
      "pad_mode" : 2,
      "Nx" : 1,
      "pad_value" : 0,
      "Ny" : 1,
      "n_parallel" : 1,
      "blob_weights_f16" : 79
    },
    {
      "pad_r" : 0,
      "fused_relu" : 0,
      "fused_tanh" : 0,
      "pad_fill_mode" : 0,
      "pad_b" : 0,
      "pad_l" : 0,
      "top" : "stem\/MobilenetV3\/Bottleneck_5\/Bottleneck_5_1\/Conv_1\/Conv2D",
      "K" : 46,
      "blob_biases" : 81,
      "name" : "stem\/MobilenetV3\/Bottleneck_5\/Bottleneck_5_1\/Conv_1\/Conv2D",
      "has_batch_norm" : 0,
      "type" : "convolution",
      "n_groups" : 1,
      "pad_t" : 0,
      "has_biases" : 1,
      "C" : 184,
      "bottom" : "stem\/MobilenetV3\/Bottleneck_5\/Bottleneck_5\/Conv\/Conv2D",
      "weights" : {

      },
      "pad_mode" : 2,
      "Nx" : 1,
      "pad_value" : 0,
      "Ny" : 1,
      "n_parallel" : 1,
      "blob_weights_f16" : 83
    },
    {
      "alpha" : 3,
      "bottom" : "stem\/MobilenetV3\/Bottleneck_5\/Bottleneck_5_1\/Conv_1\/Conv2D",
      "operation" : 2,
      "weights" : {

      },
      "fused_relu" : 0,
      "top" : "stem\/MobilenetV3\/Bottleneck_5\/Bottleneck_5_1\/Conv_1\/add",
      "type" : "elementwise",
      "name" : "stem\/MobilenetV3\/Bottleneck_5\/Bottleneck_5_1\/Conv_1\/add",
      "beta" : 0
    },
    {
      "alpha" : 0,
      "bottom" : "stem\/MobilenetV3\/Bottleneck_5\/Bottleneck_5_1\/Conv_1\/add",
      "operation" : 119,
      "weights" : {

      },
      "fused_relu" : 0,
      "top" : "stem\/MobilenetV3\/Bottleneck_5\/Bottleneck_5_1\/Conv_1\/Relu6",
      "type" : "elementwise",
      "name" : "stem\/MobilenetV3\/Bottleneck_5\/Bottleneck_5_1\/Conv_1\/Relu6",
      "beta" : 6
    },
    {
      "alpha" : 0.1666666716337204,
      "bottom" : "stem\/MobilenetV3\/Bottleneck_5\/Bottleneck_5_1\/Conv_1\/Relu6",
      "operation" : 3,
      "weights" : {

      },
      "fused_relu" : 0,
      "top" : "stem\/MobilenetV3\/Bottleneck_5\/Bottleneck_5_1\/Conv_1\/mul",
      "type" : "elementwise",
      "name" : "stem\/MobilenetV3\/Bottleneck_5\/Bottleneck_5_1\/Conv_1\/mul",
      "beta" : 0
    },
    {
      "alpha" : 1,
      "bottom" : "stem\/MobilenetV3\/Bottleneck_5\/depthwise\/InstanceNorm\/instancenorm\/add_1,stem\/MobilenetV3\/Bottleneck_5\/Bottleneck_5_1\/Conv_1\/mul",
      "operation" : 1,
      "weights" : {

      },
      "fused_relu" : 0,
      "nd_mode" : true,
      "top" : "stem\/MobilenetV3\/Bottleneck_5\/mul",
      "type" : "elementwise",
      "name" : "stem\/MobilenetV3\/Bottleneck_5\/mul",
      "beta" : 0
    },
    {
      "alpha" : 3,
      "bottom" : "stem\/MobilenetV3\/Bottleneck_5\/mul",
      "operation" : 2,
      "weights" : {

      },
      "fused_relu" : 0,
      "top" : "stem\/MobilenetV3\/Bottleneck_5\/add",
      "type" : "elementwise",
      "name" : "stem\/MobilenetV3\/Bottleneck_5\/add",
      "beta" : 0
    },
    {
      "alpha" : 0,
      "bottom" : "stem\/MobilenetV3\/Bottleneck_5\/add",
      "operation" : 119,
      "weights" : {

      },
      "fused_relu" : 0,
      "top" : "stem\/MobilenetV3\/Bottleneck_5\/Relu6",
      "type" : "elementwise",
      "name" : "stem\/MobilenetV3\/Bottleneck_5\/Relu6",
      "beta" : 6
    },
    {
      "alpha" : 0.1666666716337204,
      "bottom" : "stem\/MobilenetV3\/Bottleneck_5\/Relu6",
      "operation" : 3,
      "weights" : {

      },
      "fused_relu" : 0,
      "top" : "stem\/MobilenetV3\/Bottleneck_5\/mul_1",
      "type" : "elementwise",
      "name" : "stem\/MobilenetV3\/Bottleneck_5\/mul_1",
      "beta" : 0
    },
    {
      "alpha" : 1,
      "bottom" : "stem\/MobilenetV3\/Bottleneck_5\/mul,stem\/MobilenetV3\/Bottleneck_5\/mul_1",
      "operation" : 1,
      "weights" : {

      },
      "fused_relu" : 0,
      "top" : "stem\/MobilenetV3\/Bottleneck_5\/mul_2",
      "type" : "elementwise",
      "name" : "stem\/MobilenetV3\/Bottleneck_5\/mul_2",
      "beta" : 0
    },
    {
      "pad_r" : 0,
      "fused_relu" : 0,
      "fused_tanh" : 0,
      "pad_fill_mode" : 0,
      "pad_b" : 0,
      "pad_l" : 0,
      "top" : "stem\/MobilenetV3\/Bottleneck_5\/compress\/Conv2D",
      "K" : 184,
      "name" : "stem\/MobilenetV3\/Bottleneck_5\/compress\/Conv2D",
      "has_batch_norm" : 0,
      "type" : "convolution",
      "n_groups" : 1,
      "pad_t" : 0,
      "has_biases" : 0,
      "C" : 32,
      "bottom" : "stem\/MobilenetV3\/Bottleneck_5\/mul_2",
      "weights" : {

      },
      "pad_mode" : 1,
      "Nx" : 1,
      "pad_value" : 0,
      "Ny" : 1,
      "n_parallel" : 1,
      "blob_weights_f16" : 85
    },
    {
      "bottom" : "stem\/MobilenetV3\/Bottleneck_5\/compress\/Conv2D",
      "training_instancenorm" : 1,
      "training_momentum" : 0.89999997615814209,
      "training" : 1,
      "blob_batchnorm_params" : 87,
      "weights" : {

      },
      "training_eps" : 9.9999999747524271e-07,
      "top" : "stem\/MobilenetV3\/Bottleneck_5\/compress\/InstanceNorm\/instancenorm\/add_1",
      "C" : 32,
      "type" : "batchnorm",
      "name" : "stem\/MobilenetV3\/Bottleneck_5\/compress\/InstanceNorm\/instancenorm\/add_1"
    },
    {
      "alpha" : 1,
      "bottom" : "stem\/MobilenetV3\/Bottleneck_5\/compress\/InstanceNorm\/instancenorm\/add_1,stem\/MobilenetV3\/Bottleneck_4\/compress\/InstanceNorm\/instancenorm\/add_1",
      "operation" : 0,
      "weights" : {

      },
      "fused_relu" : 0,
      "top" : "stem\/MobilenetV3\/Bottleneck_5\/add_1",
      "type" : "elementwise",
      "name" : "stem\/MobilenetV3\/Bottleneck_5\/add_1",
      "beta" : 0
    },
    {
      "pad_r" : 0,
      "fused_relu" : 0,
      "fused_tanh" : 0,
      "pad_fill_mode" : 0,
      "pad_b" : 0,
      "pad_l" : 0,
      "top" : "stem\/MobilenetV3\/Bottleneck_6\/expand\/Conv2D",
      "K" : 32,
      "name" : "stem\/MobilenetV3\/Bottleneck_6\/expand\/Conv2D",
      "has_batch_norm" : 0,
      "type" : "convolution",
      "n_groups" : 1,
      "pad_t" : 0,
      "has_biases" : 0,
      "C" : 184,
      "bottom" : "stem\/MobilenetV3\/Bottleneck_5\/add_1",
      "weights" : {

      },
      "pad_mode" : 1,
      "Nx" : 1,
      "pad_value" : 0,
      "Ny" : 1,
      "n_parallel" : 1,
      "blob_weights_f16" : 89
    },
    {
      "bottom" : "stem\/MobilenetV3\/Bottleneck_6\/expand\/Conv2D",
      "training_instancenorm" : 1,
      "training_momentum" : 0.89999997615814209,
      "training" : 1,
      "blob_batchnorm_params" : 91,
      "weights" : {

      },
      "training_eps" : 9.9999999747524271e-07,
      "top" : "stem\/MobilenetV3\/Bottleneck_6\/expand\/InstanceNorm\/instancenorm\/add_1",
      "C" : 184,
      "type" : "batchnorm",
      "name" : "stem\/MobilenetV3\/Bottleneck_6\/expand\/InstanceNorm\/instancenorm\/add_1"
    },
    {
      "alpha" : 3,
      "bottom" : "stem\/MobilenetV3\/Bottleneck_6\/expand\/InstanceNorm\/instancenorm\/add_1",
      "operation" : 2,
      "weights" : {

      },
      "fused_relu" : 0,
      "top" : "stem\/MobilenetV3\/Bottleneck_6\/expand\/add",
      "type" : "elementwise",
      "name" : "stem\/MobilenetV3\/Bottleneck_6\/expand\/add",
      "beta" : 0
    },
    {
      "alpha" : 0,
      "bottom" : "stem\/MobilenetV3\/Bottleneck_6\/expand\/add",
      "operation" : 119,
      "weights" : {

      },
      "fused_relu" : 0,
      "top" : "stem\/MobilenetV3\/Bottleneck_6\/expand\/Relu6",
      "type" : "elementwise",
      "name" : "stem\/MobilenetV3\/Bottleneck_6\/expand\/Relu6",
      "beta" : 6
    },
    {
      "alpha" : 0.1666666716337204,
      "bottom" : "stem\/MobilenetV3\/Bottleneck_6\/expand\/Relu6",
      "operation" : 3,
      "weights" : {

      },
      "fused_relu" : 0,
      "top" : "stem\/MobilenetV3\/Bottleneck_6\/expand\/mul",
      "type" : "elementwise",
      "name" : "stem\/MobilenetV3\/Bottleneck_6\/expand\/mul",
      "beta" : 0
    },
    {
      "alpha" : 1,
      "bottom" : "stem\/MobilenetV3\/Bottleneck_6\/expand\/InstanceNorm\/instancenorm\/add_1,stem\/MobilenetV3\/Bottleneck_6\/expand\/mul",
      "operation" : 1,
      "weights" : {

      },
      "fused_relu" : 0,
      "top" : "stem\/MobilenetV3\/Bottleneck_6\/expand\/mul_1",
      "type" : "elementwise",
      "name" : "stem\/MobilenetV3\/Bottleneck_6\/expand\/mul_1",
      "beta" : 0
    },
    {
      "pad_r" : 0,
      "fused_relu" : 0,
      "fused_tanh" : 0,
      "pad_fill_mode" : 0,
      "pad_b" : 0,
      "pad_l" : 0,
      "top" : "stem\/MobilenetV3\/Bottleneck_6\/depthwise\/depthwise",
      "K" : 184,
      "name" : "stem\/MobilenetV3\/Bottleneck_6\/depthwise\/depthwise",
      "has_batch_norm" : 0,
      "type" : "convolution",
      "n_groups" : 184,
      "pad_t" : 0,
      "has_biases" : 0,
      "C" : 184,
      "bottom" : "stem\/MobilenetV3\/Bottleneck_6\/expand\/mul_1",
      "weights" : {

      },
      "pad_mode" : 1,
      "Nx" : 5,
      "pad_value" : 0,
      "Ny" : 5,
      "n_parallel" : 1,
      "blob_weights_f16" : 93
    },
    {
      "bottom" : "stem\/MobilenetV3\/Bottleneck_6\/depthwise\/depthwise",
      "training_instancenorm" : 1,
      "training_momentum" : 0.89999997615814209,
      "training" : 1,
      "blob_batchnorm_params" : 95,
      "weights" : {

      },
      "training_eps" : 9.9999999747524271e-07,
      "top" : "stem\/MobilenetV3\/Bottleneck_6\/depthwise\/InstanceNorm\/instancenorm\/add_1",
      "C" : 184,
      "type" : "batchnorm",
      "name" : "stem\/MobilenetV3\/Bottleneck_6\/depthwise\/InstanceNorm\/instancenorm\/add_1"
    },
    {
      "pad_r" : 0,
      "pad_fill_mode" : 0,
      "pad_b" : 0,
      "pad_l" : 0,
      "top" : "stem\/MobilenetV3\/Bottleneck_6\/gap\/Mean",
      "size_x" : 23,
      "is_global" : 1,
      "top_shape_style" : 0,
      "stride_x" : 1,
      "avg_or_max" : 0,
      "average_count_exclude_padding" : 1,
      "type" : "pool",
      "name" : "stem\/MobilenetV3\/Bottleneck_6\/gap\/Mean",
      "pad_t" : 0,
      "stride_y" : 1,
      "bottom" : "stem\/MobilenetV3\/Bottleneck_6\/depthwise\/InstanceNorm\/instancenorm\/add_1",
      "weights" : {

      },
      "pad_mode" : 0,
      "size_y" : 23,
      "pad_value" : 0
    },
    {
      "pad_r" : 0,
      "fused_relu" : 1,
      "fused_tanh" : 0,
      "pad_fill_mode" : 0,
      "pad_b" : 0,
      "pad_l" : 0,
      "top" : "stem\/MobilenetV3\/Bottleneck_6\/Bottleneck_6\/Conv\/Conv2D",
      "K" : 184,
      "blob_biases" : 97,
      "name" : "stem\/MobilenetV3\/Bottleneck_6\/Bottleneck_6\/Conv\/Conv2D",
      "has_batch_norm" : 0,
      "type" : "convolution",
      "n_groups" : 1,
      "pad_t" : 0,
      "has_biases" : 1,
      "C" : 46,
      "bottom" : "stem\/MobilenetV3\/Bottleneck_6\/gap\/Mean",
      "weights" : {

      },
      "pad_mode" : 2,
      "Nx" : 1,
      "pad_value" : 0,
      "Ny" : 1,
      "n_parallel" : 1,
      "blob_weights_f16" : 99
    },
    {
      "pad_r" : 0,
      "fused_relu" : 0,
      "fused_tanh" : 0,
      "pad_fill_mode" : 0,
      "pad_b" : 0,
      "pad_l" : 0,
      "top" : "stem\/MobilenetV3\/Bottleneck_6\/Bottleneck_6_1\/Conv_1\/Conv2D",
      "K" : 46,
      "blob_biases" : 101,
      "name" : "stem\/MobilenetV3\/Bottleneck_6\/Bottleneck_6_1\/Conv_1\/Conv2D",
      "has_batch_norm" : 0,
      "type" : "convolution",
      "n_groups" : 1,
      "pad_t" : 0,
      "has_biases" : 1,
      "C" : 184,
      "bottom" : "stem\/MobilenetV3\/Bottleneck_6\/Bottleneck_6\/Conv\/Conv2D",
      "weights" : {

      },
      "pad_mode" : 2,
      "Nx" : 1,
      "pad_value" : 0,
      "Ny" : 1,
      "n_parallel" : 1,
      "blob_weights_f16" : 103
    },
    {
      "alpha" : 3,
      "bottom" : "stem\/MobilenetV3\/Bottleneck_6\/Bottleneck_6_1\/Conv_1\/Conv2D",
      "operation" : 2,
      "weights" : {

      },
      "fused_relu" : 0,
      "top" : "stem\/MobilenetV3\/Bottleneck_6\/Bottleneck_6_1\/Conv_1\/add",
      "type" : "elementwise",
      "name" : "stem\/MobilenetV3\/Bottleneck_6\/Bottleneck_6_1\/Conv_1\/add",
      "beta" : 0
    },
    {
      "alpha" : 0,
      "bottom" : "stem\/MobilenetV3\/Bottleneck_6\/Bottleneck_6_1\/Conv_1\/add",
      "operation" : 119,
      "weights" : {

      },
      "fused_relu" : 0,
      "top" : "stem\/MobilenetV3\/Bottleneck_6\/Bottleneck_6_1\/Conv_1\/Relu6",
      "type" : "elementwise",
      "name" : "stem\/MobilenetV3\/Bottleneck_6\/Bottleneck_6_1\/Conv_1\/Relu6",
      "beta" : 6
    },
    {
      "alpha" : 0.1666666716337204,
      "bottom" : "stem\/MobilenetV3\/Bottleneck_6\/Bottleneck_6_1\/Conv_1\/Relu6",
      "operation" : 3,
      "weights" : {

      },
      "fused_relu" : 0,
      "top" : "stem\/MobilenetV3\/Bottleneck_6\/Bottleneck_6_1\/Conv_1\/mul",
      "type" : "elementwise",
      "name" : "stem\/MobilenetV3\/Bottleneck_6\/Bottleneck_6_1\/Conv_1\/mul",
      "beta" : 0
    },
    {
      "alpha" : 1,
      "bottom" : "stem\/MobilenetV3\/Bottleneck_6\/depthwise\/InstanceNorm\/instancenorm\/add_1,stem\/MobilenetV3\/Bottleneck_6\/Bottleneck_6_1\/Conv_1\/mul",
      "operation" : 1,
      "weights" : {

      },
      "fused_relu" : 0,
      "nd_mode" : true,
      "top" : "stem\/MobilenetV3\/Bottleneck_6\/mul",
      "type" : "elementwise",
      "name" : "stem\/MobilenetV3\/Bottleneck_6\/mul",
      "beta" : 0
    },
    {
      "alpha" : 3,
      "bottom" : "stem\/MobilenetV3\/Bottleneck_6\/mul",
      "operation" : 2,
      "weights" : {

      },
      "fused_relu" : 0,
      "top" : "stem\/MobilenetV3\/Bottleneck_6\/add",
      "type" : "elementwise",
      "name" : "stem\/MobilenetV3\/Bottleneck_6\/add",
      "beta" : 0
    },
    {
      "alpha" : 0,
      "bottom" : "stem\/MobilenetV3\/Bottleneck_6\/add",
      "operation" : 119,
      "weights" : {

      },
      "fused_relu" : 0,
      "top" : "stem\/MobilenetV3\/Bottleneck_6\/Relu6",
      "type" : "elementwise",
      "name" : "stem\/MobilenetV3\/Bottleneck_6\/Relu6",
      "beta" : 6
    },
    {
      "alpha" : 0.1666666716337204,
      "bottom" : "stem\/MobilenetV3\/Bottleneck_6\/Relu6",
      "operation" : 3,
      "weights" : {

      },
      "fused_relu" : 0,
      "top" : "stem\/MobilenetV3\/Bottleneck_6\/mul_1",
      "type" : "elementwise",
      "name" : "stem\/MobilenetV3\/Bottleneck_6\/mul_1",
      "beta" : 0
    },
    {
      "alpha" : 1,
      "bottom" : "stem\/MobilenetV3\/Bottleneck_6\/mul,stem\/MobilenetV3\/Bottleneck_6\/mul_1",
      "operation" : 1,
      "weights" : {

      },
      "fused_relu" : 0,
      "top" : "stem\/MobilenetV3\/Bottleneck_6\/mul_2",
      "type" : "elementwise",
      "name" : "stem\/MobilenetV3\/Bottleneck_6\/mul_2",
      "beta" : 0
    },
    {
      "pad_r" : 0,
      "fused_relu" : 0,
      "fused_tanh" : 0,
      "pad_fill_mode" : 0,
      "pad_b" : 0,
      "pad_l" : 0,
      "top" : "stem\/MobilenetV3\/Bottleneck_6\/compress\/Conv2D",
      "K" : 184,
      "name" : "stem\/MobilenetV3\/Bottleneck_6\/compress\/Conv2D",
      "has_batch_norm" : 0,
      "type" : "convolution",
      "n_groups" : 1,
      "pad_t" : 0,
      "has_biases" : 0,
      "C" : 32,
      "bottom" : "stem\/MobilenetV3\/Bottleneck_6\/mul_2",
      "weights" : {

      },
      "pad_mode" : 1,
      "Nx" : 1,
      "pad_value" : 0,
      "Ny" : 1,
      "n_parallel" : 1,
      "blob_weights_f16" : 105
    },
    {
      "bottom" : "stem\/MobilenetV3\/Bottleneck_6\/compress\/Conv2D",
      "training_instancenorm" : 1,
      "training_momentum" : 0.89999997615814209,
      "training" : 1,
      "blob_batchnorm_params" : 107,
      "weights" : {

      },
      "training_eps" : 9.9999999747524271e-07,
      "top" : "stem\/MobilenetV3\/Bottleneck_6\/compress\/InstanceNorm\/instancenorm\/add_1",
      "C" : 32,
      "type" : "batchnorm",
      "name" : "stem\/MobilenetV3\/Bottleneck_6\/compress\/InstanceNorm\/instancenorm\/add_1"
    },
    {
      "alpha" : 1,
      "bottom" : "stem\/MobilenetV3\/Bottleneck_6\/compress\/InstanceNorm\/instancenorm\/add_1,stem\/MobilenetV3\/Bottleneck_5\/add_1",
      "operation" : 0,
      "weights" : {

      },
      "fused_relu" : 0,
      "top" : "stem\/MobilenetV3\/Bottleneck_6\/add_1",
      "type" : "elementwise",
      "name" : "stem\/MobilenetV3\/Bottleneck_6\/add_1",
      "beta" : 0
    },
    {
      "pad_r" : 0,
      "fused_relu" : 0,
      "fused_tanh" : 0,
      "pad_fill_mode" : 0,
      "pad_b" : 0,
      "pad_l" : 0,
      "top" : "stem\/MobilenetV3\/Bottleneck_7\/expand\/Conv2D",
      "K" : 32,
      "name" : "stem\/MobilenetV3\/Bottleneck_7\/expand\/Conv2D",
      "has_batch_norm" : 0,
      "type" : "convolution",
      "n_groups" : 1,
      "pad_t" : 0,
      "has_biases" : 0,
      "C" : 88,
      "bottom" : "stem\/MobilenetV3\/Bottleneck_6\/add_1",
      "weights" : {

      },
      "pad_mode" : 1,
      "Nx" : 1,
      "pad_value" : 0,
      "Ny" : 1,
      "n_parallel" : 1,
      "blob_weights_f16" : 109
    },
    {
      "bottom" : "stem\/MobilenetV3\/Bottleneck_7\/expand\/Conv2D",
      "training_instancenorm" : 1,
      "training_momentum" : 0.89999997615814209,
      "training" : 1,
      "blob_batchnorm_params" : 111,
      "weights" : {

      },
      "training_eps" : 9.9999999747524271e-07,
      "top" : "stem\/MobilenetV3\/Bottleneck_7\/expand\/InstanceNorm\/instancenorm\/add_1",
      "C" : 88,
      "type" : "batchnorm",
      "name" : "stem\/MobilenetV3\/Bottleneck_7\/expand\/InstanceNorm\/instancenorm\/add_1"
    },
    {
      "alpha" : 3,
      "bottom" : "stem\/MobilenetV3\/Bottleneck_7\/expand\/InstanceNorm\/instancenorm\/add_1",
      "operation" : 2,
      "weights" : {

      },
      "fused_relu" : 0,
      "top" : "stem\/MobilenetV3\/Bottleneck_7\/expand\/add",
      "type" : "elementwise",
      "name" : "stem\/MobilenetV3\/Bottleneck_7\/expand\/add",
      "beta" : 0
    },
    {
      "alpha" : 0,
      "bottom" : "stem\/MobilenetV3\/Bottleneck_7\/expand\/add",
      "operation" : 119,
      "weights" : {

      },
      "fused_relu" : 0,
      "top" : "stem\/MobilenetV3\/Bottleneck_7\/expand\/Relu6",
      "type" : "elementwise",
      "name" : "stem\/MobilenetV3\/Bottleneck_7\/expand\/Relu6",
      "beta" : 6
    },
    {
      "alpha" : 0.1666666716337204,
      "bottom" : "stem\/MobilenetV3\/Bottleneck_7\/expand\/Relu6",
      "operation" : 3,
      "weights" : {

      },
      "fused_relu" : 0,
      "top" : "stem\/MobilenetV3\/Bottleneck_7\/expand\/mul",
      "type" : "elementwise",
      "name" : "stem\/MobilenetV3\/Bottleneck_7\/expand\/mul",
      "beta" : 0
    },
    {
      "alpha" : 1,
      "bottom" : "stem\/MobilenetV3\/Bottleneck_7\/expand\/InstanceNorm\/instancenorm\/add_1,stem\/MobilenetV3\/Bottleneck_7\/expand\/mul",
      "operation" : 1,
      "weights" : {

      },
      "fused_relu" : 0,
      "top" : "stem\/MobilenetV3\/Bottleneck_7\/expand\/mul_1",
      "type" : "elementwise",
      "name" : "stem\/MobilenetV3\/Bottleneck_7\/expand\/mul_1",
      "beta" : 0
    },
    {
      "pad_r" : 0,
      "fused_relu" : 0,
      "fused_tanh" : 0,
      "pad_fill_mode" : 0,
      "pad_b" : 0,
      "pad_l" : 0,
      "top" : "stem\/MobilenetV3\/Bottleneck_7\/depthwise\/depthwise",
      "K" : 88,
      "name" : "stem\/MobilenetV3\/Bottleneck_7\/depthwise\/depthwise",
      "has_batch_norm" : 0,
      "type" : "convolution",
      "n_groups" : 88,
      "pad_t" : 0,
      "has_biases" : 0,
      "C" : 88,
      "bottom" : "stem\/MobilenetV3\/Bottleneck_7\/expand\/mul_1",
      "weights" : {

      },
      "pad_mode" : 1,
      "Nx" : 5,
      "pad_value" : 0,
      "Ny" : 5,
      "n_parallel" : 1,
      "blob_weights_f16" : 113
    },
    {
      "bottom" : "stem\/MobilenetV3\/Bottleneck_7\/depthwise\/depthwise",
      "training_instancenorm" : 1,
      "training_momentum" : 0.89999997615814209,
      "training" : 1,
      "blob_batchnorm_params" : 115,
      "weights" : {

      },
      "training_eps" : 9.9999999747524271e-07,
      "top" : "stem\/MobilenetV3\/Bottleneck_7\/depthwise\/InstanceNorm\/instancenorm\/add_1",
      "C" : 88,
      "type" : "batchnorm",
      "name" : "stem\/MobilenetV3\/Bottleneck_7\/depthwise\/InstanceNorm\/instancenorm\/add_1"
    },
    {
      "pad_r" : 0,
      "pad_fill_mode" : 0,
      "pad_b" : 0,
      "pad_l" : 0,
      "top" : "stem\/MobilenetV3\/Bottleneck_7\/gap\/Mean",
      "size_x" : 23,
      "is_global" : 1,
      "top_shape_style" : 0,
      "stride_x" : 1,
      "avg_or_max" : 0,
      "average_count_exclude_padding" : 1,
      "type" : "pool",
      "name" : "stem\/MobilenetV3\/Bottleneck_7\/gap\/Mean",
      "pad_t" : 0,
      "stride_y" : 1,
      "bottom" : "stem\/MobilenetV3\/Bottleneck_7\/depthwise\/InstanceNorm\/instancenorm\/add_1",
      "weights" : {

      },
      "pad_mode" : 0,
      "size_y" : 23,
      "pad_value" : 0
    },
    {
      "pad_r" : 0,
      "fused_relu" : 1,
      "fused_tanh" : 0,
      "pad_fill_mode" : 0,
      "pad_b" : 0,
      "pad_l" : 0,
      "top" : "stem\/MobilenetV3\/Bottleneck_7\/Bottleneck_7\/Conv\/Conv2D",
      "K" : 88,
      "blob_biases" : 117,
      "name" : "stem\/MobilenetV3\/Bottleneck_7\/Bottleneck_7\/Conv\/Conv2D",
      "has_batch_norm" : 0,
      "type" : "convolution",
      "n_groups" : 1,
      "pad_t" : 0,
      "has_biases" : 1,
      "C" : 22,
      "bottom" : "stem\/MobilenetV3\/Bottleneck_7\/gap\/Mean",
      "weights" : {

      },
      "pad_mode" : 2,
      "Nx" : 1,
      "pad_value" : 0,
      "Ny" : 1,
      "n_parallel" : 1,
      "blob_weights_f16" : 119
    },
    {
      "pad_r" : 0,
      "fused_relu" : 0,
      "fused_tanh" : 0,
      "pad_fill_mode" : 0,
      "pad_b" : 0,
      "pad_l" : 0,
      "top" : "stem\/MobilenetV3\/Bottleneck_7\/Bottleneck_7_1\/Conv_1\/Conv2D",
      "K" : 22,
      "blob_biases" : 121,
      "name" : "stem\/MobilenetV3\/Bottleneck_7\/Bottleneck_7_1\/Conv_1\/Conv2D",
      "has_batch_norm" : 0,
      "type" : "convolution",
      "n_groups" : 1,
      "pad_t" : 0,
      "has_biases" : 1,
      "C" : 88,
      "bottom" : "stem\/MobilenetV3\/Bottleneck_7\/Bottleneck_7\/Conv\/Conv2D",
      "weights" : {

      },
      "pad_mode" : 2,
      "Nx" : 1,
      "pad_value" : 0,
      "Ny" : 1,
      "n_parallel" : 1,
      "blob_weights_f16" : 123
    },
    {
      "alpha" : 3,
      "bottom" : "stem\/MobilenetV3\/Bottleneck_7\/Bottleneck_7_1\/Conv_1\/Conv2D",
      "operation" : 2,
      "weights" : {

      },
      "fused_relu" : 0,
      "top" : "stem\/MobilenetV3\/Bottleneck_7\/Bottleneck_7_1\/Conv_1\/add",
      "type" : "elementwise",
      "name" : "stem\/MobilenetV3\/Bottleneck_7\/Bottleneck_7_1\/Conv_1\/add",
      "beta" : 0
    },
    {
      "alpha" : 0,
      "bottom" : "stem\/MobilenetV3\/Bottleneck_7\/Bottleneck_7_1\/Conv_1\/add",
      "operation" : 119,
      "weights" : {

      },
      "fused_relu" : 0,
      "top" : "stem\/MobilenetV3\/Bottleneck_7\/Bottleneck_7_1\/Conv_1\/Relu6",
      "type" : "elementwise",
      "name" : "stem\/MobilenetV3\/Bottleneck_7\/Bottleneck_7_1\/Conv_1\/Relu6",
      "beta" : 6
    },
    {
      "alpha" : 0.1666666716337204,
      "bottom" : "stem\/MobilenetV3\/Bottleneck_7\/Bottleneck_7_1\/Conv_1\/Relu6",
      "operation" : 3,
      "weights" : {

      },
      "fused_relu" : 0,
      "top" : "stem\/MobilenetV3\/Bottleneck_7\/Bottleneck_7_1\/Conv_1\/mul",
      "type" : "elementwise",
      "name" : "stem\/MobilenetV3\/Bottleneck_7\/Bottleneck_7_1\/Conv_1\/mul",
      "beta" : 0
    },
    {
      "alpha" : 1,
      "bottom" : "stem\/MobilenetV3\/Bottleneck_7\/depthwise\/InstanceNorm\/instancenorm\/add_1,stem\/MobilenetV3\/Bottleneck_7\/Bottleneck_7_1\/Conv_1\/mul",
      "operation" : 1,
      "weights" : {

      },
      "fused_relu" : 0,
      "nd_mode" : true,
      "top" : "stem\/MobilenetV3\/Bottleneck_7\/mul",
      "type" : "elementwise",
      "name" : "stem\/MobilenetV3\/Bottleneck_7\/mul",
      "beta" : 0
    },
    {
      "alpha" : 3,
      "bottom" : "stem\/MobilenetV3\/Bottleneck_7\/mul",
      "operation" : 2,
      "weights" : {

      },
      "fused_relu" : 0,
      "top" : "stem\/MobilenetV3\/Bottleneck_7\/add",
      "type" : "elementwise",
      "name" : "stem\/MobilenetV3\/Bottleneck_7\/add",
      "beta" : 0
    },
    {
      "alpha" : 0,
      "bottom" : "stem\/MobilenetV3\/Bottleneck_7\/add",
      "operation" : 119,
      "weights" : {

      },
      "fused_relu" : 0,
      "top" : "stem\/MobilenetV3\/Bottleneck_7\/Relu6",
      "type" : "elementwise",
      "name" : "stem\/MobilenetV3\/Bottleneck_7\/Relu6",
      "beta" : 6
    },
    {
      "alpha" : 0.1666666716337204,
      "bottom" : "stem\/MobilenetV3\/Bottleneck_7\/Relu6",
      "operation" : 3,
      "weights" : {

      },
      "fused_relu" : 0,
      "top" : "stem\/MobilenetV3\/Bottleneck_7\/mul_1",
      "type" : "elementwise",
      "name" : "stem\/MobilenetV3\/Bottleneck_7\/mul_1",
      "beta" : 0
    },
    {
      "alpha" : 1,
      "bottom" : "stem\/MobilenetV3\/Bottleneck_7\/mul,stem\/MobilenetV3\/Bottleneck_7\/mul_1",
      "operation" : 1,
      "weights" : {

      },
      "fused_relu" : 0,
      "top" : "stem\/MobilenetV3\/Bottleneck_7\/mul_2",
      "type" : "elementwise",
      "name" : "stem\/MobilenetV3\/Bottleneck_7\/mul_2",
      "beta" : 0
    },
    {
      "pad_r" : 0,
      "fused_relu" : 0,
      "fused_tanh" : 0,
      "pad_fill_mode" : 0,
      "pad_b" : 0,
      "pad_l" : 0,
      "top" : "stem\/MobilenetV3\/Bottleneck_7\/compress\/Conv2D",
      "K" : 88,
      "name" : "stem\/MobilenetV3\/Bottleneck_7\/compress\/Conv2D",
      "has_batch_norm" : 0,
      "type" : "convolution",
      "n_groups" : 1,
      "pad_t" : 0,
      "has_biases" : 0,
      "C" : 40,
      "bottom" : "stem\/MobilenetV3\/Bottleneck_7\/mul_2",
      "weights" : {

      },
      "pad_mode" : 1,
      "Nx" : 1,
      "pad_value" : 0,
      "Ny" : 1,
      "n_parallel" : 1,
      "blob_weights_f16" : 125
    },
    {
      "bottom" : "stem\/MobilenetV3\/Bottleneck_7\/compress\/Conv2D",
      "training_instancenorm" : 1,
      "training_momentum" : 0.89999997615814209,
      "training" : 1,
      "blob_batchnorm_params" : 127,
      "weights" : {

      },
      "training_eps" : 9.9999999747524271e-07,
      "top" : "stem\/MobilenetV3\/Bottleneck_7\/compress\/InstanceNorm\/instancenorm\/add_1",
      "C" : 40,
      "type" : "batchnorm",
      "name" : "stem\/MobilenetV3\/Bottleneck_7\/compress\/InstanceNorm\/instancenorm\/add_1"
    },
    {
      "pad_r" : 0,
      "fused_relu" : 0,
      "fused_tanh" : 0,
      "pad_fill_mode" : 0,
      "pad_b" : 0,
      "pad_l" : 0,
      "top" : "stem\/MobilenetV3\/Bottleneck_8\/expand\/Conv2D",
      "K" : 40,
      "name" : "stem\/MobilenetV3\/Bottleneck_8\/expand\/Conv2D",
      "has_batch_norm" : 0,
      "type" : "convolution",
      "n_groups" : 1,
      "pad_t" : 0,
      "has_biases" : 0,
      "C" : 112,
      "bottom" : "stem\/MobilenetV3\/Bottleneck_7\/compress\/InstanceNorm\/instancenorm\/add_1",
      "weights" : {

      },
      "pad_mode" : 1,
      "Nx" : 1,
      "pad_value" : 0,
      "Ny" : 1,
      "n_parallel" : 1,
      "blob_weights_f16" : 129
    },
    {
      "bottom" : "stem\/MobilenetV3\/Bottleneck_8\/expand\/Conv2D",
      "training_instancenorm" : 1,
      "training_momentum" : 0.89999997615814209,
      "training" : 1,
      "blob_batchnorm_params" : 131,
      "weights" : {

      },
      "training_eps" : 9.9999999747524271e-07,
      "top" : "stem\/MobilenetV3\/Bottleneck_8\/expand\/InstanceNorm\/instancenorm\/add_1",
      "C" : 112,
      "type" : "batchnorm",
      "name" : "stem\/MobilenetV3\/Bottleneck_8\/expand\/InstanceNorm\/instancenorm\/add_1"
    },
    {
      "alpha" : 3,
      "bottom" : "stem\/MobilenetV3\/Bottleneck_8\/expand\/InstanceNorm\/instancenorm\/add_1",
      "operation" : 2,
      "weights" : {

      },
      "fused_relu" : 0,
      "top" : "stem\/MobilenetV3\/Bottleneck_8\/expand\/add",
      "type" : "elementwise",
      "name" : "stem\/MobilenetV3\/Bottleneck_8\/expand\/add",
      "beta" : 0
    },
    {
      "alpha" : 0,
      "bottom" : "stem\/MobilenetV3\/Bottleneck_8\/expand\/add",
      "operation" : 119,
      "weights" : {

      },
      "fused_relu" : 0,
      "top" : "stem\/MobilenetV3\/Bottleneck_8\/expand\/Relu6",
      "type" : "elementwise",
      "name" : "stem\/MobilenetV3\/Bottleneck_8\/expand\/Relu6",
      "beta" : 6
    },
    {
      "alpha" : 0.1666666716337204,
      "bottom" : "stem\/MobilenetV3\/Bottleneck_8\/expand\/Relu6",
      "operation" : 3,
      "weights" : {

      },
      "fused_relu" : 0,
      "top" : "stem\/MobilenetV3\/Bottleneck_8\/expand\/mul",
      "type" : "elementwise",
      "name" : "stem\/MobilenetV3\/Bottleneck_8\/expand\/mul",
      "beta" : 0
    },
    {
      "alpha" : 1,
      "bottom" : "stem\/MobilenetV3\/Bottleneck_8\/expand\/InstanceNorm\/instancenorm\/add_1,stem\/MobilenetV3\/Bottleneck_8\/expand\/mul",
      "operation" : 1,
      "weights" : {

      },
      "fused_relu" : 0,
      "top" : "stem\/MobilenetV3\/Bottleneck_8\/expand\/mul_1",
      "type" : "elementwise",
      "name" : "stem\/MobilenetV3\/Bottleneck_8\/expand\/mul_1",
      "beta" : 0
    },
    {
      "pad_r" : 0,
      "fused_relu" : 0,
      "fused_tanh" : 0,
      "pad_fill_mode" : 0,
      "pad_b" : 0,
      "pad_l" : 0,
      "top" : "stem\/MobilenetV3\/Bottleneck_8\/depthwise\/depthwise",
      "K" : 112,
      "name" : "stem\/MobilenetV3\/Bottleneck_8\/depthwise\/depthwise",
      "has_batch_norm" : 0,
      "type" : "convolution",
      "n_groups" : 112,
      "pad_t" : 0,
      "has_biases" : 0,
      "C" : 112,
      "bottom" : "stem\/MobilenetV3\/Bottleneck_8\/expand\/mul_1",
      "weights" : {

      },
      "pad_mode" : 1,
      "Nx" : 5,
      "pad_value" : 0,
      "Ny" : 5,
      "n_parallel" : 1,
      "blob_weights_f16" : 133
    },
    {
      "bottom" : "stem\/MobilenetV3\/Bottleneck_8\/depthwise\/depthwise",
      "training_instancenorm" : 1,
      "training_momentum" : 0.89999997615814209,
      "training" : 1,
      "blob_batchnorm_params" : 135,
      "weights" : {

      },
      "training_eps" : 9.9999999747524271e-07,
      "top" : "stem\/MobilenetV3\/Bottleneck_8\/depthwise\/InstanceNorm\/instancenorm\/add_1",
      "C" : 112,
      "type" : "batchnorm",
      "name" : "stem\/MobilenetV3\/Bottleneck_8\/depthwise\/InstanceNorm\/instancenorm\/add_1"
    },
    {
      "pad_r" : 0,
      "pad_fill_mode" : 0,
      "pad_b" : 0,
      "pad_l" : 0,
      "top" : "stem\/MobilenetV3\/Bottleneck_8\/gap\/Mean",
      "size_x" : 23,
      "is_global" : 1,
      "top_shape_style" : 0,
      "stride_x" : 1,
      "avg_or_max" : 0,
      "average_count_exclude_padding" : 1,
      "type" : "pool",
      "name" : "stem\/MobilenetV3\/Bottleneck_8\/gap\/Mean",
      "pad_t" : 0,
      "stride_y" : 1,
      "bottom" : "stem\/MobilenetV3\/Bottleneck_8\/depthwise\/InstanceNorm\/instancenorm\/add_1",
      "weights" : {

      },
      "pad_mode" : 0,
      "size_y" : 23,
      "pad_value" : 0
    },
    {
      "pad_r" : 0,
      "fused_relu" : 1,
      "fused_tanh" : 0,
      "pad_fill_mode" : 0,
      "pad_b" : 0,
      "pad_l" : 0,
      "top" : "stem\/MobilenetV3\/Bottleneck_8\/Bottleneck_8\/Conv\/Conv2D",
      "K" : 112,
      "blob_biases" : 137,
      "name" : "stem\/MobilenetV3\/Bottleneck_8\/Bottleneck_8\/Conv\/Conv2D",
      "has_batch_norm" : 0,
      "type" : "convolution",
      "n_groups" : 1,
      "pad_t" : 0,
      "has_biases" : 1,
      "C" : 28,
      "bottom" : "stem\/MobilenetV3\/Bottleneck_8\/gap\/Mean",
      "weights" : {

      },
      "pad_mode" : 2,
      "Nx" : 1,
      "pad_value" : 0,
      "Ny" : 1,
      "n_parallel" : 1,
      "blob_weights_f16" : 139
    },
    {
      "pad_r" : 0,
      "fused_relu" : 0,
      "fused_tanh" : 0,
      "pad_fill_mode" : 0,
      "pad_b" : 0,
      "pad_l" : 0,
      "top" : "stem\/MobilenetV3\/Bottleneck_8\/Bottleneck_8_1\/Conv_1\/Conv2D",
      "K" : 28,
      "blob_biases" : 141,
      "name" : "stem\/MobilenetV3\/Bottleneck_8\/Bottleneck_8_1\/Conv_1\/Conv2D",
      "has_batch_norm" : 0,
      "type" : "convolution",
      "n_groups" : 1,
      "pad_t" : 0,
      "has_biases" : 1,
      "C" : 112,
      "bottom" : "stem\/MobilenetV3\/Bottleneck_8\/Bottleneck_8\/Conv\/Conv2D",
      "weights" : {

      },
      "pad_mode" : 2,
      "Nx" : 1,
      "pad_value" : 0,
      "Ny" : 1,
      "n_parallel" : 1,
      "blob_weights_f16" : 143
    },
    {
      "alpha" : 3,
      "bottom" : "stem\/MobilenetV3\/Bottleneck_8\/Bottleneck_8_1\/Conv_1\/Conv2D",
      "operation" : 2,
      "weights" : {

      },
      "fused_relu" : 0,
      "top" : "stem\/MobilenetV3\/Bottleneck_8\/Bottleneck_8_1\/Conv_1\/add",
      "type" : "elementwise",
      "name" : "stem\/MobilenetV3\/Bottleneck_8\/Bottleneck_8_1\/Conv_1\/add",
      "beta" : 0
    },
    {
      "alpha" : 0,
      "bottom" : "stem\/MobilenetV3\/Bottleneck_8\/Bottleneck_8_1\/Conv_1\/add",
      "operation" : 119,
      "weights" : {

      },
      "fused_relu" : 0,
      "top" : "stem\/MobilenetV3\/Bottleneck_8\/Bottleneck_8_1\/Conv_1\/Relu6",
      "type" : "elementwise",
      "name" : "stem\/MobilenetV3\/Bottleneck_8\/Bottleneck_8_1\/Conv_1\/Relu6",
      "beta" : 6
    },
    {
      "alpha" : 0.1666666716337204,
      "bottom" : "stem\/MobilenetV3\/Bottleneck_8\/Bottleneck_8_1\/Conv_1\/Relu6",
      "operation" : 3,
      "weights" : {

      },
      "fused_relu" : 0,
      "top" : "stem\/MobilenetV3\/Bottleneck_8\/Bottleneck_8_1\/Conv_1\/mul",
      "type" : "elementwise",
      "name" : "stem\/MobilenetV3\/Bottleneck_8\/Bottleneck_8_1\/Conv_1\/mul",
      "beta" : 0
    },
    {
      "alpha" : 1,
      "bottom" : "stem\/MobilenetV3\/Bottleneck_8\/depthwise\/InstanceNorm\/instancenorm\/add_1,stem\/MobilenetV3\/Bottleneck_8\/Bottleneck_8_1\/Conv_1\/mul",
      "operation" : 1,
      "weights" : {

      },
      "fused_relu" : 0,
      "nd_mode" : true,
      "top" : "stem\/MobilenetV3\/Bottleneck_8\/mul",
      "type" : "elementwise",
      "name" : "stem\/MobilenetV3\/Bottleneck_8\/mul",
      "beta" : 0
    },
    {
      "alpha" : 3,
      "bottom" : "stem\/MobilenetV3\/Bottleneck_8\/mul",
      "operation" : 2,
      "weights" : {

      },
      "fused_relu" : 0,
      "top" : "stem\/MobilenetV3\/Bottleneck_8\/add",
      "type" : "elementwise",
      "name" : "stem\/MobilenetV3\/Bottleneck_8\/add",
      "beta" : 0
    },
    {
      "alpha" : 0,
      "bottom" : "stem\/MobilenetV3\/Bottleneck_8\/add",
      "operation" : 119,
      "weights" : {

      },
      "fused_relu" : 0,
      "top" : "stem\/MobilenetV3\/Bottleneck_8\/Relu6",
      "type" : "elementwise",
      "name" : "stem\/MobilenetV3\/Bottleneck_8\/Relu6",
      "beta" : 6
    },
    {
      "alpha" : 0.1666666716337204,
      "bottom" : "stem\/MobilenetV3\/Bottleneck_8\/Relu6",
      "operation" : 3,
      "weights" : {

      },
      "fused_relu" : 0,
      "top" : "stem\/MobilenetV3\/Bottleneck_8\/mul_1",
      "type" : "elementwise",
      "name" : "stem\/MobilenetV3\/Bottleneck_8\/mul_1",
      "beta" : 0
    },
    {
      "alpha" : 1,
      "bottom" : "stem\/MobilenetV3\/Bottleneck_8\/mul,stem\/MobilenetV3\/Bottleneck_8\/mul_1",
      "operation" : 1,
      "weights" : {

      },
      "fused_relu" : 0,
      "top" : "stem\/MobilenetV3\/Bottleneck_8\/mul_2",
      "type" : "elementwise",
      "name" : "stem\/MobilenetV3\/Bottleneck_8\/mul_2",
      "beta" : 0
    },
    {
      "pad_r" : 0,
      "fused_relu" : 0,
      "fused_tanh" : 0,
      "pad_fill_mode" : 0,
      "pad_b" : 0,
      "pad_l" : 0,
      "top" : "stem\/MobilenetV3\/Bottleneck_8\/compress\/Conv2D",
      "K" : 112,
      "name" : "stem\/MobilenetV3\/Bottleneck_8\/compress\/Conv2D",
      "has_batch_norm" : 0,
      "type" : "convolution",
      "n_groups" : 1,
      "pad_t" : 0,
      "has_biases" : 0,
      "C" : 40,
      "bottom" : "stem\/MobilenetV3\/Bottleneck_8\/mul_2",
      "weights" : {

      },
      "pad_mode" : 1,
      "Nx" : 1,
      "pad_value" : 0,
      "Ny" : 1,
      "n_parallel" : 1,
      "blob_weights_f16" : 145
    },
    {
      "bottom" : "stem\/MobilenetV3\/Bottleneck_8\/compress\/Conv2D",
      "training_instancenorm" : 1,
      "training_momentum" : 0.89999997615814209,
      "training" : 1,
      "blob_batchnorm_params" : 147,
      "weights" : {

      },
      "training_eps" : 9.9999999747524271e-07,
      "top" : "stem\/MobilenetV3\/Bottleneck_8\/compress\/InstanceNorm\/instancenorm\/add_1",
      "C" : 40,
      "type" : "batchnorm",
      "name" : "stem\/MobilenetV3\/Bottleneck_8\/compress\/InstanceNorm\/instancenorm\/add_1"
    },
    {
      "alpha" : 1,
      "bottom" : "stem\/MobilenetV3\/Bottleneck_8\/compress\/InstanceNorm\/instancenorm\/add_1,stem\/MobilenetV3\/Bottleneck_7\/compress\/InstanceNorm\/instancenorm\/add_1",
      "operation" : 0,
      "weights" : {

      },
      "fused_relu" : 0,
      "top" : "stem\/MobilenetV3\/Bottleneck_8\/add_1",
      "type" : "elementwise",
      "name" : "stem\/MobilenetV3\/Bottleneck_8\/add_1",
      "beta" : 0
    },
    {
      "pad_r" : 0,
      "fused_relu" : 0,
      "fused_tanh" : 0,
      "pad_fill_mode" : 0,
      "pad_b" : 0,
      "pad_l" : 0,
      "top" : "stem\/MobilenetV3\/Bottleneck_9\/expand\/Conv2D",
      "K" : 40,
      "name" : "stem\/MobilenetV3\/Bottleneck_9\/expand\/Conv2D",
      "has_batch_norm" : 0,
      "type" : "convolution",
      "n_groups" : 1,
      "pad_t" : 0,
      "has_biases" : 0,
      "C" : 216,
      "bottom" : "stem\/MobilenetV3\/Bottleneck_8\/add_1",
      "weights" : {

      },
      "pad_mode" : 1,
      "Nx" : 1,
      "pad_value" : 0,
      "Ny" : 1,
      "n_parallel" : 1,
      "blob_weights_f16" : 149
    },
    {
      "bottom" : "stem\/MobilenetV3\/Bottleneck_9\/expand\/Conv2D",
      "training_instancenorm" : 1,
      "training_momentum" : 0.89999997615814209,
      "training" : 1,
      "blob_batchnorm_params" : 151,
      "weights" : {

      },
      "training_eps" : 9.9999999747524271e-07,
      "top" : "stem\/MobilenetV3\/Bottleneck_9\/expand\/InstanceNorm\/instancenorm\/add_1",
      "C" : 216,
      "type" : "batchnorm",
      "name" : "stem\/MobilenetV3\/Bottleneck_9\/expand\/InstanceNorm\/instancenorm\/add_1"
    },
    {
      "alpha" : 3,
      "bottom" : "stem\/MobilenetV3\/Bottleneck_9\/expand\/InstanceNorm\/instancenorm\/add_1",
      "operation" : 2,
      "weights" : {

      },
      "fused_relu" : 0,
      "top" : "stem\/MobilenetV3\/Bottleneck_9\/expand\/add",
      "type" : "elementwise",
      "name" : "stem\/MobilenetV3\/Bottleneck_9\/expand\/add",
      "beta" : 0
    },
    {
      "alpha" : 0,
      "bottom" : "stem\/MobilenetV3\/Bottleneck_9\/expand\/add",
      "operation" : 119,
      "weights" : {

      },
      "fused_relu" : 0,
      "top" : "stem\/MobilenetV3\/Bottleneck_9\/expand\/Relu6",
      "type" : "elementwise",
      "name" : "stem\/MobilenetV3\/Bottleneck_9\/expand\/Relu6",
      "beta" : 6
    },
    {
      "alpha" : 0.1666666716337204,
      "bottom" : "stem\/MobilenetV3\/Bottleneck_9\/expand\/Relu6",
      "operation" : 3,
      "weights" : {

      },
      "fused_relu" : 0,
      "top" : "stem\/MobilenetV3\/Bottleneck_9\/expand\/mul",
      "type" : "elementwise",
      "name" : "stem\/MobilenetV3\/Bottleneck_9\/expand\/mul",
      "beta" : 0
    },
    {
      "alpha" : 1,
      "bottom" : "stem\/MobilenetV3\/Bottleneck_9\/expand\/InstanceNorm\/instancenorm\/add_1,stem\/MobilenetV3\/Bottleneck_9\/expand\/mul",
      "operation" : 1,
      "weights" : {

      },
      "fused_relu" : 0,
      "top" : "stem\/MobilenetV3\/Bottleneck_9\/expand\/mul_1",
      "type" : "elementwise",
      "name" : "stem\/MobilenetV3\/Bottleneck_9\/expand\/mul_1",
      "beta" : 0
    },
    {
      "pad_r" : 0,
      "fused_relu" : 0,
      "fused_tanh" : 0,
      "pad_fill_mode" : 0,
      "pad_b" : 0,
      "pad_l" : 0,
      "top" : "stem\/MobilenetV3\/Bottleneck_9\/depthwise\/depthwise",
      "K" : 216,
      "stride_x" : 2,
      "name" : "stem\/MobilenetV3\/Bottleneck_9\/depthwise\/depthwise",
      "has_batch_norm" : 0,
      "type" : "convolution",
      "n_groups" : 216,
      "pad_t" : 0,
      "stride_y" : 2,
      "has_biases" : 0,
      "C" : 216,
      "bottom" : "stem\/MobilenetV3\/Bottleneck_9\/expand\/mul_1",
      "weights" : {

      },
      "Nx" : 5,
      "pad_mode" : 1,
      "pad_value" : 0,
      "Ny" : 5,
      "n_parallel" : 1,
      "blob_weights_f16" : 153
    },
    {
      "bottom" : "stem\/MobilenetV3\/Bottleneck_9\/depthwise\/depthwise",
      "training_instancenorm" : 1,
      "training_momentum" : 0.89999997615814209,
      "training" : 1,
      "blob_batchnorm_params" : 155,
      "weights" : {

      },
      "training_eps" : 9.9999999747524271e-07,
      "top" : "stem\/MobilenetV3\/Bottleneck_9\/depthwise\/InstanceNorm\/instancenorm\/add_1",
      "C" : 216,
      "type" : "batchnorm",
      "name" : "stem\/MobilenetV3\/Bottleneck_9\/depthwise\/InstanceNorm\/instancenorm\/add_1"
    },
    {
      "pad_r" : 0,
      "pad_fill_mode" : 0,
      "pad_b" : 0,
      "pad_l" : 0,
      "top" : "stem\/MobilenetV3\/Bottleneck_9\/gap\/Mean",
      "size_x" : 12,
      "is_global" : 1,
      "top_shape_style" : 0,
      "stride_x" : 1,
      "avg_or_max" : 0,
      "average_count_exclude_padding" : 1,
      "type" : "pool",
      "name" : "stem\/MobilenetV3\/Bottleneck_9\/gap\/Mean",
      "pad_t" : 0,
      "stride_y" : 1,
      "bottom" : "stem\/MobilenetV3\/Bottleneck_9\/depthwise\/InstanceNorm\/instancenorm\/add_1",
      "weights" : {

      },
      "pad_mode" : 0,
      "size_y" : 12,
      "pad_value" : 0
    },
    {
      "pad_r" : 0,
      "fused_relu" : 1,
      "fused_tanh" : 0,
      "pad_fill_mode" : 0,
      "pad_b" : 0,
      "pad_l" : 0,
      "top" : "stem\/MobilenetV3\/Bottleneck_9\/Bottleneck_9\/Conv\/Conv2D",
      "K" : 216,
      "blob_biases" : 157,
      "name" : "stem\/MobilenetV3\/Bottleneck_9\/Bottleneck_9\/Conv\/Conv2D",
      "has_batch_norm" : 0,
      "type" : "convolution",
      "n_groups" : 1,
      "pad_t" : 0,
      "has_biases" : 1,
      "C" : 54,
      "bottom" : "stem\/MobilenetV3\/Bottleneck_9\/gap\/Mean",
      "weights" : {

      },
      "pad_mode" : 2,
      "Nx" : 1,
      "pad_value" : 0,
      "Ny" : 1,
      "n_parallel" : 1,
      "blob_weights_f16" : 159
    },
    {
      "pad_r" : 0,
      "fused_relu" : 0,
      "fused_tanh" : 0,
      "pad_fill_mode" : 0,
      "pad_b" : 0,
      "pad_l" : 0,
      "top" : "stem\/MobilenetV3\/Bottleneck_9\/Bottleneck_9_1\/Conv_1\/Conv2D",
      "K" : 54,
      "blob_biases" : 161,
      "name" : "stem\/MobilenetV3\/Bottleneck_9\/Bottleneck_9_1\/Conv_1\/Conv2D",
      "has_batch_norm" : 0,
      "type" : "convolution",
      "n_groups" : 1,
      "pad_t" : 0,
      "has_biases" : 1,
      "C" : 216,
      "bottom" : "stem\/MobilenetV3\/Bottleneck_9\/Bottleneck_9\/Conv\/Conv2D",
      "weights" : {

      },
      "pad_mode" : 2,
      "Nx" : 1,
      "pad_value" : 0,
      "Ny" : 1,
      "n_parallel" : 1,
      "blob_weights_f16" : 163
    },
    {
      "alpha" : 3,
      "bottom" : "stem\/MobilenetV3\/Bottleneck_9\/Bottleneck_9_1\/Conv_1\/Conv2D",
      "operation" : 2,
      "weights" : {

      },
      "fused_relu" : 0,
      "top" : "stem\/MobilenetV3\/Bottleneck_9\/Bottleneck_9_1\/Conv_1\/add",
      "type" : "elementwise",
      "name" : "stem\/MobilenetV3\/Bottleneck_9\/Bottleneck_9_1\/Conv_1\/add",
      "beta" : 0
    },
    {
      "alpha" : 0,
      "bottom" : "stem\/MobilenetV3\/Bottleneck_9\/Bottleneck_9_1\/Conv_1\/add",
      "operation" : 119,
      "weights" : {

      },
      "fused_relu" : 0,
      "top" : "stem\/MobilenetV3\/Bottleneck_9\/Bottleneck_9_1\/Conv_1\/Relu6",
      "type" : "elementwise",
      "name" : "stem\/MobilenetV3\/Bottleneck_9\/Bottleneck_9_1\/Conv_1\/Relu6",
      "beta" : 6
    },
    {
      "alpha" : 0.1666666716337204,
      "bottom" : "stem\/MobilenetV3\/Bottleneck_9\/Bottleneck_9_1\/Conv_1\/Relu6",
      "operation" : 3,
      "weights" : {

      },
      "fused_relu" : 0,
      "top" : "stem\/MobilenetV3\/Bottleneck_9\/Bottleneck_9_1\/Conv_1\/mul",
      "type" : "elementwise",
      "name" : "stem\/MobilenetV3\/Bottleneck_9\/Bottleneck_9_1\/Conv_1\/mul",
      "beta" : 0
    },
    {
      "alpha" : 1,
      "bottom" : "stem\/MobilenetV3\/Bottleneck_9\/depthwise\/InstanceNorm\/instancenorm\/add_1,stem\/MobilenetV3\/Bottleneck_9\/Bottleneck_9_1\/Conv_1\/mul",
      "operation" : 1,
      "weights" : {

      },
      "fused_relu" : 0,
      "nd_mode" : true,
      "top" : "stem\/MobilenetV3\/Bottleneck_9\/mul",
      "type" : "elementwise",
      "name" : "stem\/MobilenetV3\/Bottleneck_9\/mul",
      "beta" : 0
    },
    {
      "alpha" : 3,
      "bottom" : "stem\/MobilenetV3\/Bottleneck_9\/mul",
      "operation" : 2,
      "weights" : {

      },
      "fused_relu" : 0,
      "top" : "stem\/MobilenetV3\/Bottleneck_9\/add",
      "type" : "elementwise",
      "name" : "stem\/MobilenetV3\/Bottleneck_9\/add",
      "beta" : 0
    },
    {
      "alpha" : 0,
      "bottom" : "stem\/MobilenetV3\/Bottleneck_9\/add",
      "operation" : 119,
      "weights" : {

      },
      "fused_relu" : 0,
      "top" : "stem\/MobilenetV3\/Bottleneck_9\/Relu6",
      "type" : "elementwise",
      "name" : "stem\/MobilenetV3\/Bottleneck_9\/Relu6",
      "beta" : 6
    },
    {
      "alpha" : 0.1666666716337204,
      "bottom" : "stem\/MobilenetV3\/Bottleneck_9\/Relu6",
      "operation" : 3,
      "weights" : {

      },
      "fused_relu" : 0,
      "top" : "stem\/MobilenetV3\/Bottleneck_9\/mul_1",
      "type" : "elementwise",
      "name" : "stem\/MobilenetV3\/Bottleneck_9\/mul_1",
      "beta" : 0
    },
    {
      "alpha" : 1,
      "bottom" : "stem\/MobilenetV3\/Bottleneck_9\/mul,stem\/MobilenetV3\/Bottleneck_9\/mul_1",
      "operation" : 1,
      "weights" : {

      },
      "fused_relu" : 0,
      "top" : "stem\/MobilenetV3\/Bottleneck_9\/mul_2",
      "type" : "elementwise",
      "name" : "stem\/MobilenetV3\/Bottleneck_9\/mul_2",
      "beta" : 0
    },
    {
      "pad_r" : 0,
      "fused_relu" : 0,
      "fused_tanh" : 0,
      "pad_fill_mode" : 0,
      "pad_b" : 0,
      "pad_l" : 0,
      "top" : "stem\/MobilenetV3\/Bottleneck_9\/compress\/Conv2D",
      "K" : 216,
      "name" : "stem\/MobilenetV3\/Bottleneck_9\/compress\/Conv2D",
      "has_batch_norm" : 0,
      "type" : "convolution",
      "n_groups" : 1,
      "pad_t" : 0,
      "has_biases" : 0,
      "C" : 72,
      "bottom" : "stem\/MobilenetV3\/Bottleneck_9\/mul_2",
      "weights" : {

      },
      "pad_mode" : 1,
      "Nx" : 1,
      "pad_value" : 0,
      "Ny" : 1,
      "n_parallel" : 1,
      "blob_weights_f16" : 165
    },
    {
      "bottom" : "stem\/MobilenetV3\/Bottleneck_9\/compress\/Conv2D",
      "training_instancenorm" : 1,
      "training_momentum" : 0.89999997615814209,
      "training" : 1,
      "blob_batchnorm_params" : 167,
      "weights" : {

      },
      "training_eps" : 9.9999999747524271e-07,
      "top" : "stem\/MobilenetV3\/Bottleneck_9\/compress\/InstanceNorm\/instancenorm\/add_1",
      "C" : 72,
      "type" : "batchnorm",
      "name" : "stem\/MobilenetV3\/Bottleneck_9\/compress\/InstanceNorm\/instancenorm\/add_1"
    },
    {
      "pad_r" : 0,
      "fused_relu" : 0,
      "fused_tanh" : 0,
      "pad_fill_mode" : 0,
      "pad_b" : 0,
      "pad_l" : 0,
      "top" : "stem\/MobilenetV3\/Bottleneck_10\/expand\/Conv2D",
      "K" : 72,
      "name" : "stem\/MobilenetV3\/Bottleneck_10\/expand\/Conv2D",
      "has_batch_norm" : 0,
      "type" : "convolution",
      "n_groups" : 1,
      "pad_t" : 0,
      "has_biases" : 0,
      "C" : 432,
      "bottom" : "stem\/MobilenetV3\/Bottleneck_9\/compress\/InstanceNorm\/instancenorm\/add_1",
      "weights" : {

      },
      "pad_mode" : 1,
      "Nx" : 1,
      "pad_value" : 0,
      "Ny" : 1,
      "n_parallel" : 1,
      "blob_weights_f16" : 169
    },
    {
      "bottom" : "stem\/MobilenetV3\/Bottleneck_10\/expand\/Conv2D",
      "training_instancenorm" : 1,
      "training_momentum" : 0.89999997615814209,
      "training" : 1,
      "blob_batchnorm_params" : 171,
      "weights" : {

      },
      "training_eps" : 9.9999999747524271e-07,
      "top" : "stem\/MobilenetV3\/Bottleneck_10\/expand\/InstanceNorm\/instancenorm\/add_1",
      "C" : 432,
      "type" : "batchnorm",
      "name" : "stem\/MobilenetV3\/Bottleneck_10\/expand\/InstanceNorm\/instancenorm\/add_1"
    },
    {
      "alpha" : 3,
      "bottom" : "stem\/MobilenetV3\/Bottleneck_10\/expand\/InstanceNorm\/instancenorm\/add_1",
      "operation" : 2,
      "weights" : {

      },
      "fused_relu" : 0,
      "top" : "stem\/MobilenetV3\/Bottleneck_10\/expand\/add",
      "type" : "elementwise",
      "name" : "stem\/MobilenetV3\/Bottleneck_10\/expand\/add",
      "beta" : 0
    },
    {
      "alpha" : 0,
      "bottom" : "stem\/MobilenetV3\/Bottleneck_10\/expand\/add",
      "operation" : 119,
      "weights" : {

      },
      "fused_relu" : 0,
      "top" : "stem\/MobilenetV3\/Bottleneck_10\/expand\/Relu6",
      "type" : "elementwise",
      "name" : "stem\/MobilenetV3\/Bottleneck_10\/expand\/Relu6",
      "beta" : 6
    },
    {
      "alpha" : 0.1666666716337204,
      "bottom" : "stem\/MobilenetV3\/Bottleneck_10\/expand\/Relu6",
      "operation" : 3,
      "weights" : {

      },
      "fused_relu" : 0,
      "top" : "stem\/MobilenetV3\/Bottleneck_10\/expand\/mul",
      "type" : "elementwise",
      "name" : "stem\/MobilenetV3\/Bottleneck_10\/expand\/mul",
      "beta" : 0
    },
    {
      "alpha" : 1,
      "bottom" : "stem\/MobilenetV3\/Bottleneck_10\/expand\/InstanceNorm\/instancenorm\/add_1,stem\/MobilenetV3\/Bottleneck_10\/expand\/mul",
      "operation" : 1,
      "weights" : {

      },
      "fused_relu" : 0,
      "top" : "stem\/MobilenetV3\/Bottleneck_10\/expand\/mul_1",
      "type" : "elementwise",
      "name" : "stem\/MobilenetV3\/Bottleneck_10\/expand\/mul_1",
      "beta" : 0
    },
    {
      "pad_r" : 0,
      "fused_relu" : 0,
      "fused_tanh" : 0,
      "pad_fill_mode" : 0,
      "pad_b" : 0,
      "pad_l" : 0,
      "top" : "stem\/MobilenetV3\/Bottleneck_10\/depthwise\/depthwise",
      "K" : 432,
      "name" : "stem\/MobilenetV3\/Bottleneck_10\/depthwise\/depthwise",
      "has_batch_norm" : 0,
      "type" : "convolution",
      "n_groups" : 432,
      "pad_t" : 0,
      "has_biases" : 0,
      "C" : 432,
      "bottom" : "stem\/MobilenetV3\/Bottleneck_10\/expand\/mul_1",
      "weights" : {

      },
      "pad_mode" : 1,
      "Nx" : 5,
      "pad_value" : 0,
      "Ny" : 5,
      "n_parallel" : 1,
      "blob_weights_f16" : 173
    },
    {
      "bottom" : "stem\/MobilenetV3\/Bottleneck_10\/depthwise\/depthwise",
      "training_instancenorm" : 1,
      "training_momentum" : 0.89999997615814209,
      "training" : 1,
      "blob_batchnorm_params" : 175,
      "weights" : {

      },
      "training_eps" : 9.9999999747524271e-07,
      "top" : "stem\/MobilenetV3\/Bottleneck_10\/depthwise\/InstanceNorm\/instancenorm\/add_1",
      "C" : 432,
      "type" : "batchnorm",
      "name" : "stem\/MobilenetV3\/Bottleneck_10\/depthwise\/InstanceNorm\/instancenorm\/add_1"
    },
    {
      "pad_r" : 0,
      "pad_fill_mode" : 0,
      "pad_b" : 0,
      "pad_l" : 0,
      "top" : "stem\/MobilenetV3\/Bottleneck_10\/gap\/Mean",
      "size_x" : 12,
      "is_global" : 1,
      "top_shape_style" : 0,
      "stride_x" : 1,
      "avg_or_max" : 0,
      "average_count_exclude_padding" : 1,
      "type" : "pool",
      "name" : "stem\/MobilenetV3\/Bottleneck_10\/gap\/Mean",
      "pad_t" : 0,
      "stride_y" : 1,
      "bottom" : "stem\/MobilenetV3\/Bottleneck_10\/depthwise\/InstanceNorm\/instancenorm\/add_1",
      "weights" : {

      },
      "pad_mode" : 0,
      "size_y" : 12,
      "pad_value" : 0
    },
    {
      "pad_r" : 0,
      "fused_relu" : 1,
      "fused_tanh" : 0,
      "pad_fill_mode" : 0,
      "pad_b" : 0,
      "pad_l" : 0,
      "top" : "stem\/MobilenetV3\/Bottleneck_10\/Bottleneck_10\/Conv\/Conv2D",
      "K" : 432,
      "blob_biases" : 177,
      "name" : "stem\/MobilenetV3\/Bottleneck_10\/Bottleneck_10\/Conv\/Conv2D",
      "has_batch_norm" : 0,
      "type" : "convolution",
      "n_groups" : 1,
      "pad_t" : 0,
      "has_biases" : 1,
      "C" : 108,
      "bottom" : "stem\/MobilenetV3\/Bottleneck_10\/gap\/Mean",
      "weights" : {

      },
      "pad_mode" : 2,
      "Nx" : 1,
      "pad_value" : 0,
      "Ny" : 1,
      "n_parallel" : 1,
      "blob_weights_f16" : 179
    },
    {
      "pad_r" : 0,
      "fused_relu" : 0,
      "fused_tanh" : 0,
      "pad_fill_mode" : 0,
      "pad_b" : 0,
      "pad_l" : 0,
      "top" : "stem\/MobilenetV3\/Bottleneck_10\/Bottleneck_10_1\/Conv_1\/Conv2D",
      "K" : 108,
      "blob_biases" : 181,
      "name" : "stem\/MobilenetV3\/Bottleneck_10\/Bottleneck_10_1\/Conv_1\/Conv2D",
      "has_batch_norm" : 0,
      "type" : "convolution",
      "n_groups" : 1,
      "pad_t" : 0,
      "has_biases" : 1,
      "C" : 432,
      "bottom" : "stem\/MobilenetV3\/Bottleneck_10\/Bottleneck_10\/Conv\/Conv2D",
      "weights" : {

      },
      "pad_mode" : 2,
      "Nx" : 1,
      "pad_value" : 0,
      "Ny" : 1,
      "n_parallel" : 1,
      "blob_weights_f16" : 183
    },
    {
      "alpha" : 3,
      "bottom" : "stem\/MobilenetV3\/Bottleneck_10\/Bottleneck_10_1\/Conv_1\/Conv2D",
      "operation" : 2,
      "weights" : {

      },
      "fused_relu" : 0,
      "top" : "stem\/MobilenetV3\/Bottleneck_10\/Bottleneck_10_1\/Conv_1\/add",
      "type" : "elementwise",
      "name" : "stem\/MobilenetV3\/Bottleneck_10\/Bottleneck_10_1\/Conv_1\/add",
      "beta" : 0
    },
    {
      "alpha" : 0,
      "bottom" : "stem\/MobilenetV3\/Bottleneck_10\/Bottleneck_10_1\/Conv_1\/add",
      "operation" : 119,
      "weights" : {

      },
      "fused_relu" : 0,
      "top" : "stem\/MobilenetV3\/Bottleneck_10\/Bottleneck_10_1\/Conv_1\/Relu6",
      "type" : "elementwise",
      "name" : "stem\/MobilenetV3\/Bottleneck_10\/Bottleneck_10_1\/Conv_1\/Relu6",
      "beta" : 6
    },
    {
      "alpha" : 0.1666666716337204,
      "bottom" : "stem\/MobilenetV3\/Bottleneck_10\/Bottleneck_10_1\/Conv_1\/Relu6",
      "operation" : 3,
      "weights" : {

      },
      "fused_relu" : 0,
      "top" : "stem\/MobilenetV3\/Bottleneck_10\/Bottleneck_10_1\/Conv_1\/mul",
      "type" : "elementwise",
      "name" : "stem\/MobilenetV3\/Bottleneck_10\/Bottleneck_10_1\/Conv_1\/mul",
      "beta" : 0
    },
    {
      "alpha" : 1,
      "bottom" : "stem\/MobilenetV3\/Bottleneck_10\/depthwise\/InstanceNorm\/instancenorm\/add_1,stem\/MobilenetV3\/Bottleneck_10\/Bottleneck_10_1\/Conv_1\/mul",
      "operation" : 1,
      "weights" : {

      },
      "fused_relu" : 0,
      "nd_mode" : true,
      "top" : "stem\/MobilenetV3\/Bottleneck_10\/mul",
      "type" : "elementwise",
      "name" : "stem\/MobilenetV3\/Bottleneck_10\/mul",
      "beta" : 0
    },
    {
      "alpha" : 3,
      "bottom" : "stem\/MobilenetV3\/Bottleneck_10\/mul",
      "operation" : 2,
      "weights" : {

      },
      "fused_relu" : 0,
      "top" : "stem\/MobilenetV3\/Bottleneck_10\/add",
      "type" : "elementwise",
      "name" : "stem\/MobilenetV3\/Bottleneck_10\/add",
      "beta" : 0
    },
    {
      "alpha" : 0,
      "bottom" : "stem\/MobilenetV3\/Bottleneck_10\/add",
      "operation" : 119,
      "weights" : {

      },
      "fused_relu" : 0,
      "top" : "stem\/MobilenetV3\/Bottleneck_10\/Relu6",
      "type" : "elementwise",
      "name" : "stem\/MobilenetV3\/Bottleneck_10\/Relu6",
      "beta" : 6
    },
    {
      "alpha" : 0.1666666716337204,
      "bottom" : "stem\/MobilenetV3\/Bottleneck_10\/Relu6",
      "operation" : 3,
      "weights" : {

      },
      "fused_relu" : 0,
      "top" : "stem\/MobilenetV3\/Bottleneck_10\/mul_1",
      "type" : "elementwise",
      "name" : "stem\/MobilenetV3\/Bottleneck_10\/mul_1",
      "beta" : 0
    },
    {
      "alpha" : 1,
      "bottom" : "stem\/MobilenetV3\/Bottleneck_10\/mul,stem\/MobilenetV3\/Bottleneck_10\/mul_1",
      "operation" : 1,
      "weights" : {

      },
      "fused_relu" : 0,
      "top" : "stem\/MobilenetV3\/Bottleneck_10\/mul_2",
      "type" : "elementwise",
      "name" : "stem\/MobilenetV3\/Bottleneck_10\/mul_2",
      "beta" : 0
    },
    {
      "pad_r" : 0,
      "fused_relu" : 0,
      "fused_tanh" : 0,
      "pad_fill_mode" : 0,
      "pad_b" : 0,
      "pad_l" : 0,
      "top" : "stem\/MobilenetV3\/Bottleneck_10\/compress\/Conv2D",
      "K" : 432,
      "name" : "stem\/MobilenetV3\/Bottleneck_10\/compress\/Conv2D",
      "has_batch_norm" : 0,
      "type" : "convolution",
      "n_groups" : 1,
      "pad_t" : 0,
      "has_biases" : 0,
      "C" : 72,
      "bottom" : "stem\/MobilenetV3\/Bottleneck_10\/mul_2",
      "weights" : {

      },
      "pad_mode" : 1,
      "Nx" : 1,
      "pad_value" : 0,
      "Ny" : 1,
      "n_parallel" : 1,
      "blob_weights_f16" : 185
    },
    {
      "bottom" : "stem\/MobilenetV3\/Bottleneck_10\/compress\/Conv2D",
      "training_instancenorm" : 1,
      "training_momentum" : 0.89999997615814209,
      "training" : 1,
      "blob_batchnorm_params" : 187,
      "weights" : {

      },
      "training_eps" : 9.9999999747524271e-07,
      "top" : "stem\/MobilenetV3\/Bottleneck_10\/compress\/InstanceNorm\/instancenorm\/add_1",
      "C" : 72,
      "type" : "batchnorm",
      "name" : "stem\/MobilenetV3\/Bottleneck_10\/compress\/InstanceNorm\/instancenorm\/add_1"
    },
    {
      "alpha" : 1,
      "bottom" : "stem\/MobilenetV3\/Bottleneck_10\/compress\/InstanceNorm\/instancenorm\/add_1,stem\/MobilenetV3\/Bottleneck_9\/compress\/InstanceNorm\/instancenorm\/add_1",
      "operation" : 0,
      "weights" : {

      },
      "fused_relu" : 0,
      "top" : "stem\/MobilenetV3\/Bottleneck_10\/add_1",
      "type" : "elementwise",
      "name" : "stem\/MobilenetV3\/Bottleneck_10\/add_1",
      "beta" : 0
    },
    {
      "pad_r" : 0,
      "fused_relu" : 0,
      "fused_tanh" : 0,
      "pad_fill_mode" : 0,
      "pad_b" : 0,
      "pad_l" : 0,
      "top" : "stem\/MobilenetV3\/Bottleneck_11\/expand\/Conv2D",
      "K" : 72,
      "name" : "stem\/MobilenetV3\/Bottleneck_11\/expand\/Conv2D",
      "has_batch_norm" : 0,
      "type" : "convolution",
      "n_groups" : 1,
      "pad_t" : 0,
      "has_biases" : 0,
      "C" : 432,
      "bottom" : "stem\/MobilenetV3\/Bottleneck_10\/add_1",
      "weights" : {

      },
      "pad_mode" : 1,
      "Nx" : 1,
      "pad_value" : 0,
      "Ny" : 1,
      "n_parallel" : 1,
      "blob_weights_f16" : 189
    },
    {
      "bottom" : "stem\/MobilenetV3\/Bottleneck_11\/expand\/Conv2D",
      "training_instancenorm" : 1,
      "training_momentum" : 0.89999997615814209,
      "training" : 1,
      "blob_batchnorm_params" : 191,
      "weights" : {

      },
      "training_eps" : 9.9999999747524271e-07,
      "top" : "stem\/MobilenetV3\/Bottleneck_11\/expand\/InstanceNorm\/instancenorm\/add_1",
      "C" : 432,
      "type" : "batchnorm",
      "name" : "stem\/MobilenetV3\/Bottleneck_11\/expand\/InstanceNorm\/instancenorm\/add_1"
    },
    {
      "alpha" : 3,
      "bottom" : "stem\/MobilenetV3\/Bottleneck_11\/expand\/InstanceNorm\/instancenorm\/add_1",
      "operation" : 2,
      "weights" : {

      },
      "fused_relu" : 0,
      "top" : "stem\/MobilenetV3\/Bottleneck_11\/expand\/add",
      "type" : "elementwise",
      "name" : "stem\/MobilenetV3\/Bottleneck_11\/expand\/add",
      "beta" : 0
    },
    {
      "alpha" : 0,
      "bottom" : "stem\/MobilenetV3\/Bottleneck_11\/expand\/add",
      "operation" : 119,
      "weights" : {

      },
      "fused_relu" : 0,
      "top" : "stem\/MobilenetV3\/Bottleneck_11\/expand\/Relu6",
      "type" : "elementwise",
      "name" : "stem\/MobilenetV3\/Bottleneck_11\/expand\/Relu6",
      "beta" : 6
    },
    {
      "alpha" : 0.1666666716337204,
      "bottom" : "stem\/MobilenetV3\/Bottleneck_11\/expand\/Relu6",
      "operation" : 3,
      "weights" : {

      },
      "fused_relu" : 0,
      "top" : "stem\/MobilenetV3\/Bottleneck_11\/expand\/mul",
      "type" : "elementwise",
      "name" : "stem\/MobilenetV3\/Bottleneck_11\/expand\/mul",
      "beta" : 0
    },
    {
      "alpha" : 1,
      "bottom" : "stem\/MobilenetV3\/Bottleneck_11\/expand\/InstanceNorm\/instancenorm\/add_1,stem\/MobilenetV3\/Bottleneck_11\/expand\/mul",
      "operation" : 1,
      "weights" : {

      },
      "fused_relu" : 0,
      "top" : "stem\/MobilenetV3\/Bottleneck_11\/expand\/mul_1",
      "type" : "elementwise",
      "name" : "stem\/MobilenetV3\/Bottleneck_11\/expand\/mul_1",
      "beta" : 0
    },
    {
      "pad_r" : 0,
      "fused_relu" : 0,
      "fused_tanh" : 0,
      "pad_fill_mode" : 0,
      "pad_b" : 0,
      "pad_l" : 0,
      "top" : "stem\/MobilenetV3\/Bottleneck_11\/depthwise\/depthwise",
      "K" : 432,
      "name" : "stem\/MobilenetV3\/Bottleneck_11\/depthwise\/depthwise",
      "has_batch_norm" : 0,
      "type" : "convolution",
      "n_groups" : 432,
      "pad_t" : 0,
      "has_biases" : 0,
      "C" : 432,
      "bottom" : "stem\/MobilenetV3\/Bottleneck_11\/expand\/mul_1",
      "weights" : {

      },
      "pad_mode" : 1,
      "Nx" : 5,
      "pad_value" : 0,
      "Ny" : 5,
      "n_parallel" : 1,
      "blob_weights_f16" : 193
    },
    {
      "bottom" : "stem\/MobilenetV3\/Bottleneck_11\/depthwise\/depthwise",
      "training_instancenorm" : 1,
      "training_momentum" : 0.89999997615814209,
      "training" : 1,
      "blob_batchnorm_params" : 195,
      "weights" : {

      },
      "training_eps" : 9.9999999747524271e-07,
      "top" : "stem\/MobilenetV3\/Bottleneck_11\/depthwise\/InstanceNorm\/instancenorm\/add_1",
      "C" : 432,
      "type" : "batchnorm",
      "name" : "stem\/MobilenetV3\/Bottleneck_11\/depthwise\/InstanceNorm\/instancenorm\/add_1"
    },
    {
      "pad_r" : 0,
      "pad_fill_mode" : 0,
      "pad_b" : 0,
      "pad_l" : 0,
      "top" : "stem\/MobilenetV3\/Bottleneck_11\/gap\/Mean",
      "size_x" : 12,
      "is_global" : 1,
      "top_shape_style" : 0,
      "stride_x" : 1,
      "avg_or_max" : 0,
      "average_count_exclude_padding" : 1,
      "type" : "pool",
      "name" : "stem\/MobilenetV3\/Bottleneck_11\/gap\/Mean",
      "pad_t" : 0,
      "stride_y" : 1,
      "bottom" : "stem\/MobilenetV3\/Bottleneck_11\/depthwise\/InstanceNorm\/instancenorm\/add_1",
      "weights" : {

      },
      "pad_mode" : 0,
      "size_y" : 12,
      "pad_value" : 0
    },
    {
      "pad_r" : 0,
      "fused_relu" : 1,
      "fused_tanh" : 0,
      "pad_fill_mode" : 0,
      "pad_b" : 0,
      "pad_l" : 0,
      "top" : "stem\/MobilenetV3\/Bottleneck_11\/Bottleneck_11\/Conv\/Conv2D",
      "K" : 432,
      "blob_biases" : 197,
      "name" : "stem\/MobilenetV3\/Bottleneck_11\/Bottleneck_11\/Conv\/Conv2D",
      "has_batch_norm" : 0,
      "type" : "convolution",
      "n_groups" : 1,
      "pad_t" : 0,
      "has_biases" : 1,
      "C" : 108,
      "bottom" : "stem\/MobilenetV3\/Bottleneck_11\/gap\/Mean",
      "weights" : {

      },
      "pad_mode" : 2,
      "Nx" : 1,
      "pad_value" : 0,
      "Ny" : 1,
      "n_parallel" : 1,
      "blob_weights_f16" : 199
    },
    {
      "pad_r" : 0,
      "fused_relu" : 0,
      "fused_tanh" : 0,
      "pad_fill_mode" : 0,
      "pad_b" : 0,
      "pad_l" : 0,
      "top" : "stem\/MobilenetV3\/Bottleneck_11\/Bottleneck_11_1\/Conv_1\/Conv2D",
      "K" : 108,
      "blob_biases" : 201,
      "name" : "stem\/MobilenetV3\/Bottleneck_11\/Bottleneck_11_1\/Conv_1\/Conv2D",
      "has_batch_norm" : 0,
      "type" : "convolution",
      "n_groups" : 1,
      "pad_t" : 0,
      "has_biases" : 1,
      "C" : 432,
      "bottom" : "stem\/MobilenetV3\/Bottleneck_11\/Bottleneck_11\/Conv\/Conv2D",
      "weights" : {

      },
      "pad_mode" : 2,
      "Nx" : 1,
      "pad_value" : 0,
      "Ny" : 1,
      "n_parallel" : 1,
      "blob_weights_f16" : 203
    },
    {
      "alpha" : 3,
      "bottom" : "stem\/MobilenetV3\/Bottleneck_11\/Bottleneck_11_1\/Conv_1\/Conv2D",
      "operation" : 2,
      "weights" : {

      },
      "fused_relu" : 0,
      "top" : "stem\/MobilenetV3\/Bottleneck_11\/Bottleneck_11_1\/Conv_1\/add",
      "type" : "elementwise",
      "name" : "stem\/MobilenetV3\/Bottleneck_11\/Bottleneck_11_1\/Conv_1\/add",
      "beta" : 0
    },
    {
      "alpha" : 0,
      "bottom" : "stem\/MobilenetV3\/Bottleneck_11\/Bottleneck_11_1\/Conv_1\/add",
      "operation" : 119,
      "weights" : {

      },
      "fused_relu" : 0,
      "top" : "stem\/MobilenetV3\/Bottleneck_11\/Bottleneck_11_1\/Conv_1\/Relu6",
      "type" : "elementwise",
      "name" : "stem\/MobilenetV3\/Bottleneck_11\/Bottleneck_11_1\/Conv_1\/Relu6",
      "beta" : 6
    },
    {
      "alpha" : 0.1666666716337204,
      "bottom" : "stem\/MobilenetV3\/Bottleneck_11\/Bottleneck_11_1\/Conv_1\/Relu6",
      "operation" : 3,
      "weights" : {

      },
      "fused_relu" : 0,
      "top" : "stem\/MobilenetV3\/Bottleneck_11\/Bottleneck_11_1\/Conv_1\/mul",
      "type" : "elementwise",
      "name" : "stem\/MobilenetV3\/Bottleneck_11\/Bottleneck_11_1\/Conv_1\/mul",
      "beta" : 0
    },
    {
      "alpha" : 1,
      "bottom" : "stem\/MobilenetV3\/Bottleneck_11\/depthwise\/InstanceNorm\/instancenorm\/add_1,stem\/MobilenetV3\/Bottleneck_11\/Bottleneck_11_1\/Conv_1\/mul",
      "operation" : 1,
      "weights" : {

      },
      "fused_relu" : 0,
      "nd_mode" : true,
      "top" : "stem\/MobilenetV3\/Bottleneck_11\/mul",
      "type" : "elementwise",
      "name" : "stem\/MobilenetV3\/Bottleneck_11\/mul",
      "beta" : 0
    },
    {
      "alpha" : 3,
      "bottom" : "stem\/MobilenetV3\/Bottleneck_11\/mul",
      "operation" : 2,
      "weights" : {

      },
      "fused_relu" : 0,
      "top" : "stem\/MobilenetV3\/Bottleneck_11\/add",
      "type" : "elementwise",
      "name" : "stem\/MobilenetV3\/Bottleneck_11\/add",
      "beta" : 0
    },
    {
      "alpha" : 0,
      "bottom" : "stem\/MobilenetV3\/Bottleneck_11\/add",
      "operation" : 119,
      "weights" : {

      },
      "fused_relu" : 0,
      "top" : "stem\/MobilenetV3\/Bottleneck_11\/Relu6",
      "type" : "elementwise",
      "name" : "stem\/MobilenetV3\/Bottleneck_11\/Relu6",
      "beta" : 6
    },
    {
      "alpha" : 0.1666666716337204,
      "bottom" : "stem\/MobilenetV3\/Bottleneck_11\/Relu6",
      "operation" : 3,
      "weights" : {

      },
      "fused_relu" : 0,
      "top" : "stem\/MobilenetV3\/Bottleneck_11\/mul_1",
      "type" : "elementwise",
      "name" : "stem\/MobilenetV3\/Bottleneck_11\/mul_1",
      "beta" : 0
    },
    {
      "alpha" : 1,
      "bottom" : "stem\/MobilenetV3\/Bottleneck_11\/mul,stem\/MobilenetV3\/Bottleneck_11\/mul_1",
      "operation" : 1,
      "weights" : {

      },
      "fused_relu" : 0,
      "top" : "stem\/MobilenetV3\/Bottleneck_11\/mul_2",
      "type" : "elementwise",
      "name" : "stem\/MobilenetV3\/Bottleneck_11\/mul_2",
      "beta" : 0
    },
    {
      "pad_r" : 0,
      "fused_relu" : 0,
      "fused_tanh" : 0,
      "pad_fill_mode" : 0,
      "pad_b" : 0,
      "pad_l" : 0,
      "top" : "stem\/MobilenetV3\/Bottleneck_11\/compress\/Conv2D",
      "K" : 432,
      "name" : "stem\/MobilenetV3\/Bottleneck_11\/compress\/Conv2D",
      "has_batch_norm" : 0,
      "type" : "convolution",
      "n_groups" : 1,
      "pad_t" : 0,
      "has_biases" : 0,
      "C" : 72,
      "bottom" : "stem\/MobilenetV3\/Bottleneck_11\/mul_2",
      "weights" : {

      },
      "pad_mode" : 1,
      "Nx" : 1,
      "pad_value" : 0,
      "Ny" : 1,
      "n_parallel" : 1,
      "blob_weights_f16" : 205
    },
    {
      "bottom" : "stem\/MobilenetV3\/Bottleneck_11\/compress\/Conv2D",
      "training_instancenorm" : 1,
      "training_momentum" : 0.89999997615814209,
      "training" : 1,
      "blob_batchnorm_params" : 207,
      "weights" : {

      },
      "training_eps" : 9.9999999747524271e-07,
      "top" : "stem\/MobilenetV3\/Bottleneck_11\/compress\/InstanceNorm\/instancenorm\/add_1",
      "C" : 72,
      "type" : "batchnorm",
      "name" : "stem\/MobilenetV3\/Bottleneck_11\/compress\/InstanceNorm\/instancenorm\/add_1"
    },
    {
      "alpha" : 1,
      "bottom" : "stem\/MobilenetV3\/Bottleneck_11\/compress\/InstanceNorm\/instancenorm\/add_1,stem\/MobilenetV3\/Bottleneck_10\/add_1",
      "operation" : 0,
      "weights" : {

      },
      "fused_relu" : 0,
      "top" : "stem\/MobilenetV3\/Bottleneck_11\/add_1",
      "type" : "elementwise",
      "name" : "stem\/MobilenetV3\/Bottleneck_11\/add_1",
      "beta" : 0
    },
    {
      "pad_r" : 0,
      "fused_relu" : 0,
      "fused_tanh" : 0,
      "pad_fill_mode" : 0,
      "pad_b" : 0,
      "pad_l" : 0,
      "top" : "stem\/MobilenetV3\/Conv2d_12\/Conv2D",
      "K" : 72,
      "name" : "stem\/MobilenetV3\/Conv2d_12\/Conv2D",
      "has_batch_norm" : 0,
      "type" : "convolution",
      "n_groups" : 1,
      "pad_t" : 0,
      "has_biases" : 0,
      "C" : 432,
      "bottom" : "stem\/MobilenetV3\/Bottleneck_11\/add_1",
      "weights" : {

      },
      "pad_mode" : 1,
      "Nx" : 1,
      "pad_value" : 0,
      "Ny" : 1,
      "n_parallel" : 1,
      "blob_weights_f16" : 209
    },
    {
      "bottom" : "stem\/MobilenetV3\/Conv2d_12\/Conv2D",
      "training_instancenorm" : 1,
      "training_momentum" : 0.89999997615814209,
      "training" : 1,
      "blob_batchnorm_params" : 211,
      "weights" : {

      },
      "training_eps" : 9.9999999747524271e-07,
      "top" : "stem\/MobilenetV3\/Conv2d_12\/InstanceNorm\/instancenorm\/add_1",
      "C" : 432,
      "type" : "batchnorm",
      "name" : "stem\/MobilenetV3\/Conv2d_12\/InstanceNorm\/instancenorm\/add_1"
    },
    {
      "alpha" : 3,
      "bottom" : "stem\/MobilenetV3\/Conv2d_12\/InstanceNorm\/instancenorm\/add_1",
      "operation" : 2,
      "weights" : {

      },
      "fused_relu" : 0,
      "top" : "stem\/MobilenetV3\/Conv2d_12\/add",
      "type" : "elementwise",
      "name" : "stem\/MobilenetV3\/Conv2d_12\/add",
      "beta" : 0
    },
    {
      "alpha" : 0,
      "bottom" : "stem\/MobilenetV3\/Conv2d_12\/add",
      "operation" : 119,
      "weights" : {

      },
      "fused_relu" : 0,
      "top" : "stem\/MobilenetV3\/Conv2d_12\/Relu6",
      "type" : "elementwise",
      "name" : "stem\/MobilenetV3\/Conv2d_12\/Relu6",
      "beta" : 6
    },
    {
      "alpha" : 0.1666666716337204,
      "bottom" : "stem\/MobilenetV3\/Conv2d_12\/Relu6",
      "operation" : 3,
      "weights" : {

      },
      "fused_relu" : 0,
      "top" : "stem\/MobilenetV3\/Conv2d_12\/mul",
      "type" : "elementwise",
      "name" : "stem\/MobilenetV3\/Conv2d_12\/mul",
      "beta" : 0
    },
    {
      "alpha" : 1,
      "bottom" : "stem\/MobilenetV3\/Conv2d_12\/InstanceNorm\/instancenorm\/add_1,stem\/MobilenetV3\/Conv2d_12\/mul",
      "operation" : 1,
      "weights" : {

      },
      "fused_relu" : 0,
      "top" : "stem\/MobilenetV3\/Conv2d_12\/mul_1",
      "type" : "elementwise",
      "name" : "stem\/MobilenetV3\/Conv2d_12\/mul_1",
      "beta" : 0
    },
    {
      "pad_r" : 0,
      "pad_fill_mode" : 0,
      "pad_b" : 0,
      "pad_l" : 0,
      "top" : "stem\/MobilenetV3\/Mean",
      "size_x" : 12,
      "is_global" : 1,
      "top_shape_style" : 0,
      "stride_x" : 1,
      "avg_or_max" : 0,
      "average_count_exclude_padding" : 1,
      "type" : "pool",
      "name" : "stem\/MobilenetV3\/Mean",
      "pad_t" : 0,
      "stride_y" : 1,
      "bottom" : "stem\/MobilenetV3\/Conv2d_12\/mul_1",
      "weights" : {

      },
      "pad_mode" : 0,
      "size_y" : 12,
      "pad_value" : 0
    },
    {
      "pad_r" : 0,
      "fused_relu" : 0,
      "fused_tanh" : 0,
      "pad_fill_mode" : 0,
      "pad_b" : 0,
      "pad_l" : 0,
      "top" : "stem\/MobilenetV3\/GAP_13\/Conv2D",
      "K" : 432,
      "blob_biases" : 213,
      "name" : "stem\/MobilenetV3\/GAP_13\/Conv2D",
      "has_batch_norm" : 0,
      "type" : "convolution",
      "n_groups" : 1,
      "pad_t" : 0,
      "has_biases" : 1,
      "C" : 1280,
      "bottom" : "stem\/MobilenetV3\/Mean",
      "weights" : {

      },
      "pad_mode" : 1,
      "Nx" : 1,
      "pad_value" : 0,
      "Ny" : 1,
      "n_parallel" : 1,
      "blob_weights_f16" : 215
    },
    {
      "alpha" : 3,
      "bottom" : "stem\/MobilenetV3\/GAP_13\/Conv2D",
      "operation" : 2,
      "weights" : {

      },
      "fused_relu" : 0,
      "top" : "stem\/MobilenetV3\/GAP_13\/add",
      "type" : "elementwise",
      "name" : "stem\/MobilenetV3\/GAP_13\/add",
      "beta" : 0
    },
    {
      "alpha" : 0,
      "bottom" : "stem\/MobilenetV3\/GAP_13\/add",
      "operation" : 119,
      "weights" : {

      },
      "fused_relu" : 0,
      "top" : "stem\/MobilenetV3\/GAP_13\/Relu6",
      "type" : "elementwise",
      "name" : "stem\/MobilenetV3\/GAP_13\/Relu6",
      "beta" : 6
    },
    {
      "alpha" : 0.1666666716337204,
      "bottom" : "stem\/MobilenetV3\/GAP_13\/Relu6",
      "operation" : 3,
      "weights" : {

      },
      "fused_relu" : 0,
      "top" : "stem\/MobilenetV3\/GAP_13\/mul",
      "type" : "elementwise",
      "name" : "stem\/MobilenetV3\/GAP_13\/mul",
      "beta" : 0
    },
    {
      "alpha" : 1,
      "bottom" : "stem\/MobilenetV3\/GAP_13\/Conv2D,stem\/MobilenetV3\/GAP_13\/mul",
      "operation" : 1,
      "weights" : {

      },
      "fused_relu" : 0,
      "top" : "stem\/MobilenetV3\/GAP_13\/mul_1",
      "type" : "elementwise",
      "name" : "stem\/MobilenetV3\/GAP_13\/mul_1",
      "beta" : 0
    },
    {
      "nB" : 1280,
      "top" : "cell_leaf\/fully_connected_1\/MatMul",
      "has_biases" : 1,
      "name" : "cell_leaf\/fully_connected_1\/MatMul",
      "nC" : 500,
      "weights" : {

      },
      "type" : "inner_product",
      "has_relu" : 1,
      "bottom" : "stem\/MobilenetV3\/GAP_13\/mul_1",
      "blob_biases" : 217,
      "has_tanh" : 0,
      "blob_weights_f16" : 219,
      "has_prelu" : 0
    },
    {
      "has_prelu" : 0,
      "top" : "leaf\/logits",
      "has_biases" : 1,
      "blob_weights_f16" : 223,
      "nC" : 128,
      "weights" : {

      },
      "type" : "inner_product",
      "has_relu" : 0,
      "attributes" : {
        "is_output" : 1
      },
      "bottom" : "cell_leaf\/fully_connected_1\/MatMul",
      "blob_biases" : 221,
      "has_tanh" : 0,
      "name" : "leaf\/logits",
      "nB" : 500
    }
  ]
}
